a2c/main_a2c_model.pt (torch, 5257 bytes, 4 tensors)

fc1.weight f4 [128, 4]
000000 5c e1 c2 be 99 dc de 3e 0c 82 09 bf 0d b2 f9 be
       -0.3806256 0.43527678 -0.5371406 -0.48768654
000010 28 25 b7 3e 19 48 b8 3e 92 8d 79 3e a4 a5 55 3e
       0.35770535 0.35992506 0.24370411 0.20863968
000020 22 1c 81 3e 55 02 af 3b 35 57 02 3f d9 d2 cc 3e
       0.25216776 0.005340854 0.5091432 0.40004614
000030 d1 df cc 3d 93 fb b0 3d 8f d1 22 be 0d 2f 99 bd
       0.10003627 0.08641734 -0.15900253 -0.07479677
000040 6e 74 f8 be c2 8b 74 bd 61 69 98 be d2 24 f0 be
       -0.4852633 -0.059703596 -0.29767898 -0.46903092
000050 37 39 a0 be 71 18 10 bf ca fd 49 be 13 6a 03 bf
       -0.3129365 -0.56287295 -0.19725719 -0.5133373
000060 b5 a4 bd 3e 6a b9 db 3e 60 0d 9c 3e 6f 12 37 3e
       0.37039724 0.42914897 0.30478954 0.17878126
000070 19 1e 1e 3e 71 98 01 bf 1c f3 8e 3d 61 e0 e0 be
       0.15441169 -0.5062323 0.06979963 -0.43921188
000080 45 79 03 bf 54 91 65 3e 01 78 d0 be 3f a6 00 bf
       -0.5135692 0.2241872 -0.40716556 -0.5025367
000090 e2 6f 82 3e c6 ee 14 bd ec 3c 1a 3f cf 63 94 3e
       0.25475985 -0.036360525 0.6024921 0.28982398
0000a0 cb 93 ab 3e e7 ee 80 be 93 25 5b 3e b0 ac 0c 3e
       0.33511195 -0.25182268 0.21401052 0.1373775
0000b0 92 cb 04 3f 08 36 00 3f b7 54 16 3d 2f 3c 8f be
       0.51873124 0.50082445 0.036701884 -0.27975604
0000c0 3c 22 d5 be 9a 27 ac 3e 41 14 b4 3e c2 c3 8a be
       -0.4162768 0.33623964 0.35171703 -0.27102476
0000d0 6d f7 01 3e 50 cd f5 3e 36 fe 49 bf 7e 6a 1e bf
       0.12692042 0.48008204 -0.7890352 -0.61881244
0000e0 57 83 5c be 75 b2 d1 3e 31 35 72 be 48 a7 f2 be
       -0.21534477 0.40956464 -0.23653103 -0.4739325
0000f0 4b 47 fe be aa f2 75 be 21 de d7 3e 86 88 37 3e
       -0.49663767 -0.2401835 0.42161658 0.17923173
000100 75 d3 88 3e c6 45 f6 be e8 6a a2 be a6 9c 6b 3e
       0.2672383 -0.48100108 -0.31722188 0.23008975
000110 dc d6 67 be 75 22 6d 3e 4a 4f 96 3e f7 3f f5 3d
       -0.22640556 0.23157676 0.29357368 0.11975091
000120 54 bb 90 3e 31 10 9b be b8 a8 62 bd 02 90 17 bf
       0.2826792 -0.3028579 -0.055336684 -0.59204113
000130 e9 3a 2f be b4 9a cb be 55 7a 80 3e c6 ce fe 3e
       -0.17112316 -0.39766467 0.25093332 0.4976713
000140 54 dd 5b bc 38 f0 1a be 4f 6f 88 be 37 7b 97 3e
       -0.013419468 -0.15130699 -0.26647422 0.29586193
000150 ad 0a f4 be 33 96 89 be 1d 42 1f bf 25 7b 54 3d
       -0.47664395 -0.26872405 -0.62210256 0.051875252
000160 de bf d0 bc 4c 3b e3 bd a4 3e 90 3e 53 29 9f 3e
       -0.025482114 -0.11095294 0.2817279 0.31086215
000170 33 ea cd 3e 1e 4d dd 3e 93 53 43 bb 60 53 9d 3e
       0.40217742 0.43222898 -0.0029804453 0.30727673
000180 34 d4 02 bf db 37 b0 3e 08 c3 2d 3e c5 c7 2a be
       -0.51105046 0.34417614 0.1696893 -0.16677769
000190 13 ed 55 be 3a 8c a1 3e 43 4d 0f bf fb 86 b5 3d
       -0.20891218 0.31552297 -0.5597727 0.08863636
0001a0 9b ae 5e 3e 7e 9b da be ef bf c0 be f2 38 09 bf
       0.21746294 -0.42696756 -0.37646434 -0.53602517
0001b0 a0 db f1 bd 96 71 6b be 12 89 68 bf 8a 66 08 bf
       -0.11809468 -0.22992548 -0.9083415 -0.5328146
0001c0 15 c3 e9 be aa a3 73 3e d5 17 88 be cc bc 64 bc
       -0.45656648 0.23792902 -0.26580682 -0.013961028
0001d0 37 ea 51 3d 12 45 c2 be 86 0a 4e be d1 c3 f5 be
       0.051248755 -0.3794332 -0.20121202 -0.4800096
0001e0 3f 46 c2 be a9 1b 62 bc f9 78 24 bf c2 bc 8b be
       -0.3794422 -0.01380054 -0.6424709 -0.27292448
0001f0 57 26 bb be 85 dc d0 be 14 69 25 3e e0 58 61 3e
       -0.36552688 -0.40793243 0.16153365 0.2200656
000200 7e 49 c9 bd 39 be 04 3f a2 dc 0a be 6b ae 78 3d
       -0.09828471 0.51852757 -0.13560727 0.060713213
000210 9b 95 d7 3e 31 06 86 bd d9 71 5d be 34 c8 d9 3e
       0.42106327 -0.0654415 -0.2162546 0.42535555
000220 61 c5 ea be d3 07 02 be 43 c9 a2 3e fc 79 b8 be
       -0.45853713 -0.12698297 0.31794176 -0.36030567
000230 63 b6 97 bd f3 2d 08 3e c9 dc 03 3e 6e ad 38 3f
       -0.074078344 0.13298778 0.12877192 0.7213963
000240 38 9a 03 3d b5 82 93 be a0 b8 89 3d 07 62 88 3e
       0.032129496 -0.2881066 0.067246675 0.2663729
000250 8b 63 e5 be b1 87 64 bd e1 37 25 bf 20 ef ab bd
       -0.44802508 -0.055793468 -0.6453839 -0.08395219
000260 36 a9 b4 be 40 49 ac be 3e 70 bc 3e fb 5a 17 3f
       -0.35285348 -0.33649635 0.36804384 0.591232
000270 83 c8 25 be fe 05 82 3e df 58 24 3e 64 e6 22 bd
       -0.1618977 0.25395197 0.16049527 -0.0397705
000280 43 6a c3 be 6c 0f 59 be 6f 86 35 3e b9 fc 8a 3d
       -0.3816701 -0.21197289 0.17727064 0.06786484
000290 d5 75 89 be 3c 71 ac 3e a9 9f 21 3f 56 0e be 3e
       -0.2684771 0.3368014 0.6313425 0.37120312
0002a0 4a a1 fb bd 6a f0 d3 be d0 f1 2b bf fd 4b 17 bf
       -0.12286623 -0.4139436 -0.6716585 -0.59100324
0002b0 4c 3c e5 3d ab cf a1 3e c1 6a 81 3e 84 34 2d 3f
       0.11193141 0.3160375 0.2527676 0.6765826
0002c0 94 bc a2 bb a3 0c 15 bd 41 65 1f bf 9a e5 a5 be
       -0.004966328 -0.036389004 -0.62263876 -0.32401735
0002d0 05 69 3e 3d e8 51 a1 3e 1c f8 e6 be 15 ca 8e 3e
       0.046486873 0.31507802 -0.45111167 0.2788855
0002e0 44 8f 08 3e 1c 7f 05 3f 09 52 da bd 0a ae 94 3e
       0.13335901 0.5214708 -0.10660178 0.2903903
0002f0 4f 6c cf be 3a 4f 04 be ad fc af be d5 81 02 bf
       -0.4051232 -0.12920848 -0.34372464 -0.5097936
000300 04 52 82 be 3d 00 fe bd 8e 80 96 be f3 58 9e 3e
       -0.25453198 -0.12402389 -0.29394954 0.30927238
000310 34 1c 5c be ec a1 1e be c5 a2 e0 3e 07 34 29 3c
       -0.21495134 -0.15491456 0.43874183 0.010327346
000320 42 14 46 be 57 45 de 3b e1 7a 5c be e0 24 92 be
       -0.19343665 0.0067831683 -0.2153125 -0.28543758
000330 7d b2 48 be 4a 78 4e 3e 9b 6e c4 be 7a 72 63 3d
       -0.19599338 0.20163074 -0.38365635 0.055529095
000340 a5 6c e3 be 42 4c 94 3e f9 d2 68 3e f6 06 d4 3e
       -0.44418827 0.2896443 0.2273673 0.4141156
000350 cc a4 13 be 73 1b 85 bd ed a9 e5 be c4 69 fa bc
       -0.14418334 -0.06499376 -0.44856206 -0.030568011
000360 c5 fb bc 3d be fa 00 3e fc 1b 22 be 79 28 0d bf
       0.09227709 0.1259565 -0.15830988 -0.5513988
000370 fb 6f c0 3e 34 f8 87 3e c3 2d d5 be 2c 35 e8 be
       0.37585434 0.2655655 -0.41636476 -0.45353067
000380 2c 29 a6 be b9 92 ac 3e 34 c3 12 3f 40 c3 bf 3e
       -0.32453287 0.3370569 0.57329106 0.3745365
000390 b8 98 e9 be db 90 a2 be 58 61 c2 3e 9f 36 8b 3e
       -0.45624328 -0.3175114 0.37964892 0.2719011
0003a0 cd 7e 77 bc 89 ea 92 bd d8 9d 73 bf 12 51 e2 be
       -0.015105915 -0.0717364 -0.95162725 -0.44202477
0003b0 7d 1c b1 3e b7 b0 fb 3e a3 4f 88 3e ce 97 bd 3e
       0.34592047 0.4915826 0.26623258 0.3702988
0003c0 2c 66 e0 3d f0 b7 00 3d f7 b9 72 3b 74 b5 ea be
       0.10956988 0.031425416 0.0037037113 -0.45841563
0003d0 57 c1 f7 bb 29 ff 7c be 41 19 10 3e 8a 32 84 3e
       -0.0075608897 -0.24706711 0.14072134 0.25819808
0003e0 cc 87 b7 3e 47 3a 3f 3e cd 6f 29 be 20 a9 72 bc
       0.35845792 0.18674575 -0.16546555 -0.01481083
0003f0 82 18 9c 3c 07 9b 99 be ad 04 ea bd 8e 7f cc 3e
       0.019054655 -0.3000109 -0.11426673 0.39941067

fc1.bias f4 [128]
000000 b3 d6 ad 3d 1a 2c ec bd 1e eb f5 3e db c4 0c 3e
       0.08488216 -0.11531849 0.48030943 0.1374697
000010 df 5d 6f 3e 1f a4 bf 3d 9c 99 9f be 2b 5b cc 3d
       0.23375653 0.093574755 -0.31171882 0.099783264
000020 10 b1 54 be 33 86 e5 3e d3 ed df be f5 6f 3d 3c
       -0.20770669 0.44828948 -0.43736133 0.011562337
000030 1f c6 2d be a4 a1 b3 3d cd 87 06 be cf b2 75 3e
       -0.16970108 0.08771065 -0.13137741 0.23993991
000040 fa 0d a9 be c0 13 b8 be f9 c0 e3 3e 37 82 66 3d
       -0.33018476 -0.35952568 0.44483164 0.056276526
000050 56 b7 f8 be 50 fd df 3e 46 c3 4a 3e 72 cc 8a be
       -0.48577374 0.4374795 0.19801053 -0.27109104
000060 d6 8a 70 3d 1b 2a 8e 3e 2c f3 44 3e 01 17 94 3e
       0.058726154 0.277665 0.19233388 0.289238
000070 d9 2f a3 be 31 92 ed be e4 74 23 3e db 27 d2 be
       -0.31872442 -0.46400598 0.15962559 -0.41046032
000080 12 fd 7c bd 11 70 4d be 94 5a 96 be 47 be fa 3e
       -0.061764784 -0.20062281 -0.2936598 0.48973295
000090 d7 25 d2 be ff 88 0f bc f6 45 89 bd b8 f3 7f be
       -0.41044495 -0.00876069 -0.06702797 -0.24995315
0000a0 cb 2f 70 be b9 95 35 3e fd a8 77 bd 97 e2 9b 3e
       -0.23455732 0.17732896 -0.060463894 0.30446312
0000b0 af 1f 25 3e b3 11 08 be de e5 e7 be 26 46 82 3e
       0.16125368 -0.13288002 -0.45292562 0.25444144
0000c0 f7 1c f5 bc 1e 1c e6 be 41 6f 88 be 0f aa e7 be
       -0.029921038 -0.44943327 -0.2664738 -0.45246932
0000d0 9e 4c c1 be ef f2 c1 be a7 2b d5 3e 45 04 8c 3e
       -0.37753767 -0.37880656 0.41634867 0.27347007
0000e0 a5 5a 42 3e 2b 25 38 3e 65 d4 7f 3e 80 18 93 3d
       0.1897989 0.17982928 0.24983366 0.071824074
0000f0 78 60 eb be e4 bc 97 be 9d d3 e0 3e 28 c6 85 be
       -0.45972037 -0.296363 0.43911448 -0.26127744
000100 aa 5b cf 3e f4 ee f2 bd 92 eb f3 3e 0f 0c b9 be
       0.40499622 -0.11861983 0.47640663 -0.36142012
000110 56 b0 f1 3e d9 08 c9 be 2e d7 dd be 18 d7 82 bd
       0.47204846 -0.39264563 -0.43328232 -0.06388682
000120 db 07 8d be de c4 ea be 92 ac f4 be 46 20 6e be
       -0.27545056 -0.45853323 -0.4778791 -0.23254499
000130 80 f3 4b 3e 01 68 69 3e 3a 69 30 3d 87 7f 69 3e
       0.19917107 0.2279358 0.043069102 0.22802554
000140 ba be 72 be 9b 9d ed be e0 52 aa be 3d 5d 10 3e
       -0.23705569 -0.46409306 -0.33266354 0.14098068
000150 a1 b5 97 be f2 2d 21 3e ea a8 b5 be 85 4b 0a 3e
       -0.2963076 0.15740183 -0.35480434 0.13505371
000160 f0 1b de 3e 9b dd ec 3e f7 09 ca 3e 5f f1 e8 bd
       0.4338069 0.46262822 0.39460728 -0.11374163
000170 6a ff b3 be 8d d4 e2 be 12 57 9b 3e 2d f9 c9 be
       -0.35155803 -0.44302788 0.30339867 -0.3944792
000180 2c 4e 05 be 8b 87 79 3e cc 82 72 3e 36 91 c6 3d
       -0.13018101 0.24368112 0.23682708 0.096956655
000190 f8 55 d4 bd 0a 0b d7 3e 6b fe 7d 3e e3 a2 31 3e
       -0.1036796 0.4200061 0.24804084 0.17347293
0001a0 01 47 c2 be 9b db d3 be f0 71 23 3e 32 ec e2 bd
       -0.37944797 -0.41378483 0.15961432 -0.11080207
0001b0 5d 6d 82 3b ec de b6 be 92 7e 1b 3e 5e 3f 23 3e
       0.0039803223 -0.3571695 0.15185001 0.15942141
0001c0 01 5f d6 3e ec 29 dd be bb ce 9e be 56 6c df be
       0.41869357 -0.43196046 -0.31017098 -0.4363734
0001d0 f8 71 f9 be 03 ae a5 be e7 17 a4 3e 70 73 f1 bd
       -0.48719764 -0.32359323 0.32049486 -0.11789596
0001e0 11 d6 b6 3e 79 f7 5c 3e b8 58 d7 3e bc d9 e3 be
       0.35710195 0.21578778 0.42059875 -0.44502056
0001f0 c2 ce 41 3e a6 58 a2 3d 41 a4 dd be 5d 1b f7 3e
       0.18926528 0.079270646 -0.43289378 0.48263064

fc2.weight f4 [2, 128]
000000 5f 69 c2 3d e4 f9 79 3d c1 c6 66 bb 36 15 2f bc
       0.09492754 0.06102933 -0.0035213681 -0.010686209
000010 a7 7a 2b 3e cb d7 8a 3d d7 07 e2 3d 4a 05 c4 3d
       0.16746007 0.067794405 0.110366516 0.09571321
000020 eb 1c 7f 3c 1e 51 0f be 4f 16 68 3d 59 86 88 3d
       0.015570859 -0.13995788 0.0566619 0.0666625
000030 1a 86 9a bc 40 31 31 3e 9e 1a 13 3e 00 e0 be bd
       -0.018862773 0.17303944 0.14365622 -0.09320068
000040 78 a7 88 3d ce c7 82 bd a6 89 24 3e ae 63 02 3b
       0.06672567 -0.06385766 0.16068134 0.001989584
000050 7d c4 3f 3c d5 00 20 3d 7b 98 01 bd 3e 8e 9e bc
       0.011704561 0.039063293 -0.031639557 -0.019354936
000060 40 54 98 bb 53 ce b6 3b 67 81 88 3e 8d 06 23 3e
       -0.0046487153 0.005578795 0.26661226 0.15920468
000070 94 ba aa 3d 3b 88 73 3d d1 c3 0a 3e fa 7b 9c 3c
       0.08336368 0.05945609 0.1355126 0.019102085
000080 f5 b9 b9 3a 23 21 18 3d 7e 6b 25 3c 43 d6 2e be
       0.0014169799 0.037140977 0.010096429 -0.17073922
000090 17 15 3a bb 81 ed 93 3d d5 1b ca bd eb e9 80 bd
       -0.0028393918 0.07223035 -0.0986859 -0.06294616
0000a0 aa 68 98 3c f9 08 34 be 20 73 5b 3e c7 30 e6 bd
       0.018604595 -0.17581548 0.21430635 -0.11239772
0000b0 4a f6 5d 3e 39 b1 d6 3c 93 fa 6c 3d ae a9 d6 3d
       0.21675983 0.026207553 0.057856154 0.104815826
0000c0 fc 64 08 3d e1 19 fc 3c 0c 68 21 bc d5 7b 6e bc
       0.03329943 0.030774059 -0.009851467 -0.014555891
0000d0 57 dd f0 3c f8 7a 19 bd 39 69 29 3d d0 1d 35 3d
       0.029402418 -0.037470788 0.041360114 0.044217885
0000e0 e6 f0 0a be 40 31 07 be 2e 62 2c 3e 41 63 db bd
       -0.13568458 -0.13202381 0.16834328 -0.107122906
0000f0 0e 0a 8e bd 65 85 bb bd fe cc 36 3d b5 0e b9 bd
       -0.069355115 -0.09156302 0.04462909 -0.09036008
000100 22 c9 13 bd 81 81 99 3d 96 15 2f be fd 0e 68 bd
       -0.036080487 0.07495404 -0.17098078 -0.05665492
000110 46 e0 57 be c1 be 2b 3d 02 ce 8b 3c fd a4 be bd
       -0.21081647 0.041929964 0.017066006 -0.09308813
000120 2c 9d 86 3d fd da be 3d 81 37 5f 3d b6 33 46 3d
       0.06572947 0.093191124 0.054496292 0.04838916
000130 f9 66 b7 bd 1b 59 a1 bd ce 8f 6e bc 22 17 1b 3e
       -0.08955187 -0.07878324 -0.014560653 0.15145543
000140 a7 ef f9 bd 34 86 9c bd 91 8c bc 3c 85 69 13 be
       -0.12203913 -0.07642785 0.023016246 -0.14395721
000150 c3 31 e8 3c 63 3f f9 bd 50 7d 92 3d 9d bf c6 bd
       0.02834404 -0.12170293 0.07152808 -0.09704516
000160 af d0 5e bd 02 43 b5 3d ff 19 35 bd 7d b7 90 bc
       -0.054398235 0.08850671 -0.044214245 -0.017665619
000170 aa b5 21 bb 64 6e e5 bb 50 6f 8e bd 27 8e 95 bd
       -0.002467493 -0.007001685 -0.06954825 -0.07302504
000180 ae 39 8c bc fa 9e 84 3c aa 0c be bb f2 bf 43 3e
       -0.017117348 0.016189087 -0.0057998495 0.1911619
000190 c5 3b 30 bd 6d ca ce 3d 53 45 5c be c2 55 15 3e
       -0.04302575 0.100972034 -0.2151082 0.14583495
0001a0 20 c8 a4 3d 23 c7 fc 3c 46 f1 29 3e 12 d4 02 bc
       0.08045983 0.030856675 0.16595945 -0.007985132
0001b0 ad 71 39 3e 4d d8 37 3d b6 76 ba be ef 43 f2 3d
       0.1810977 0.044884015 -0.36418694 0.118293636
0001c0 f0 b5 05 be 1f e9 4d bd 75 7a 35 bc 95 83 dc bc
       -0.13057685 -0.05027115 -0.011076559 -0.026918212
0001d0 88 0c b3 bd 80 d4 34 3e bd 52 15 3d 0b 45 e4 3d
       -0.087426245 0.17659187 0.03645586 0.111459814
0001e0 c8 b0 08 3e 00 79 cd 3d 16 8f 53 3c ee af f3 bc
       0.13348687 0.100328445 0.012912532 -0.029746976
0001f0 36 2d f7 bd e8 9d 31 3e 2d e2 4a 3d 95 58 d0 bc
       -0.1206917 0.17345393 0.049532104 -0.025432864
000200 b5 94 ee bd 71 04 a2 3d ad 18 d5 3d 98 93 1f bb
       -0.11649457 0.079110034 0.10405097 -0.0024349447
000210 12 4d 0f be d0 ba 23 be 5c b0 9f bd a2 db 58 be
       -0.13994244 -0.15989232 -0.0779731 -0.21177533
000220 a0 7b ae bd ce bd ad 3d 4c 1b 2f 3b 30 84 d5 bc
       -0.08519673 0.08483468 0.002671915 -0.026064008
000230 17 38 d3 3c f5 92 49 bd e3 a9 10 be ed a9 57 3d
       0.025783582 -0.049212415 -0.14127307 0.05265229
000240 c2 e8 8f bc 4e 71 52 bc 26 a2 cd bd f8 e8 f2 3d
       -0.017567042 -0.012844397 -0.10040693 0.118608415
000250 f9 be 90 3c 7c 21 54 bd b0 57 3b 3c 50 4f 45 3c
       0.017669188 -0.051789746 0.011434481 0.012042835
000260 d6 79 ac bc 34 97 99 bd a4 0b 1b be d3 37 06 be
       -0.02105419 -0.07499543 -0.1514116 -0.13107233
000270 1a 8f 65 bd 1d 2c bf bd a2 7a 6e bd 7c 75 90 3d
       -0.056044675 -0.09334586 -0.05822242 0.07053658
000280 31 48 16 bd 63 74 a3 3d 8e 98 68 bc 75 d5 5c 3d
       -0.03668994 0.079811834 -0.014196528 0.053914506
000290 b9 5b 07 3c da 2c 9f bd 3c 84 fa 3d 51 79 84 3d
       0.0082616145 -0.07772227 0.12232253 0.06468452
0002a0 12 c0 79 3d b9 be 2a 3e 06 0b ea bd af a3 54 3e
       0.06097419 0.16674317 -0.11427884 0.20765565
0002b0 c4 ea 98 bd 29 6c fc 3c fc 45 ea bd 3e 7e 02 be
       -0.07466653 0.030813294 -0.1143913 -0.1274347
0002c0 79 7c a2 bc 40 41 81 3d 6f a8 39 bd de f8 e8 ba
       -0.019834744 0.063112736 -0.045326646 -0.0017774364
0002d0 38 2f 6c bd cd 50 74 3d 3e 2c 94 bd 03 bc f0 bb
       -0.05766222 0.05964737 -0.07235001 -0.0073466315
0002e0 c6 11 1d 3e 1d 77 0b 3d 28 bf 0f be c8 6c 9d 3d
       0.15338811 0.034049142 -0.14037764 0.07686764
0002f0 44 31 93 bd 91 c1 aa bc d3 45 e7 bc b2 9a 18 3d
       -0.07187131 -0.020844253 -0.028231537 0.037256904
000300 60 17 b7 3c 7e aa c3 bc ec 6b 9d 3d 07 00 76 bd
       0.022350013 -0.023885008 0.076866 -0.06005862
000310 5e 5a b3 3d 14 0e a2 3c ca bd af bc cd 75 cb 3d
       0.087574705 0.019782104 -0.021452803 0.09934578
000320 79 e3 45 bd f0 8a 8a 3a a7 54 5a bd b2 66 a1 3d
       -0.048312638 0.0010569971 -0.053303387 0.07880916
000330 d0 fe 06 3e 3b 3e 56 3e 8f 86 c4 3d bf f9 5d be
       0.13183141 0.20922177 0.095959775 -0.21677302
000340 b1 15 af 3c df 12 c8 bc e9 5a c5 bc 1f 2d 91 3e
       0.021372648 -0.024423061 -0.0240912 0.28354737
000350 43 e9 12 be 75 b5 38 bc 3f 81 91 bc 33 cb d8 3d
       -0.14346795 -0.0112737315 -0.017761825 0.10585632
000360 f6 b1 6c 3b 48 ed a8 bd b2 c6 32 bc dd 44 4a 3c
       0.0036116815 -0.08248383 -0.0109116305 0.01234552
000370 75 27 63 bd d1 fa 85 bd 9e 9a 2b 3d 76 81 9d 3b
       -0.05545755 -0.0654198 0.0418955 0.0048066927
000380 48 f3 68 3c fd 17 a2 bb d6 e6 f5 bb ae 9e 03 be
       0.014218159 -0.0049467073 -0.0075043244 -0.128535
000390 27 ab d0 3c 11 bd b3 bc 07 04 33 3e f7 5c a9 bd
       0.025472237 -0.02194074 0.17482005 -0.08269685
0003a0 c4 3f cf bd fc 06 5c bd 64 e2 d1 bd f8 b6 ba bc
       -0.10119584 -0.0537176 -0.10248259 -0.022792324
0003b0 57 99 ef bd 2e 43 8b bd eb 26 8a 3e 37 54 bf bc
       -0.11699169 -0.06799923 0.26982817 -0.023355586
0003c0 27 d6 30 3d 82 cf ab bc 88 8e 08 bd c6 7f cb bd
       0.04317298 -0.02097297 -0.033339053 -0.0993648
0003d0 25 bf 86 bd 93 77 8a bd 8c 55 1e be e3 49 8e bd
       -0.06579427 -0.06761088 -0.15462321 -0.069476865
0003e0 53 d3 e0 bd ad 3a 2a be 02 b2 c5 3c 29 c2 a5 3a
       -0.10977807 -0.16623946 0.024132732 0.0012646365
0003f0 07 5f 84 3d 2e 17 06 be cd 51 3c 3d d3 74 ec 3d
       0.064634375 -0.1309478 0.04597645 0.1154572

fc2.bias f4 [2]
000000 91 06 49 bc ed cf 8a 3d
       -0.012269632 0.0677794
