a2c/main_a2c_model.pt (torch, 5257 bytes, 4 tensors)

fc1.weight f4 [128, 4]
000000 a7 c2 75 be 8a ec 6b be 7a 53 88 be d1 1c a4 3e
       -0.24000035 -0.23039451 -0.26626188 0.32053235
000010 85 fb 6f 3d 49 8b a5 3e 92 83 21 3f 4a 7a 0e 3f
       0.058589477 0.3233283 0.63091385 0.5565535
000020 f9 7c 26 be a7 19 84 3e 30 7d 02 bf 1d 93 9f be
       -0.16258611 0.2580082 -0.5097227 -0.31166926
000030 f6 52 bc be 50 f7 a1 bd 83 ce be be ce 92 05 be
       -0.36782044 -0.07908499 -0.3726693 -0.13044283
000040 cc 49 38 be 29 2b 2d 3e 11 dd 06 bd 55 4b 15 3f
       -0.17996901 0.16910996 -0.03292567 0.5831807
000050 a1 b6 80 3d f5 02 bd bd 91 5c 0e bf fe 80 d3 be
       0.06284834 -0.0922908 -0.55609995 -0.4130935
000060 0e ab 80 3e e4 f1 69 3e 1e 2f ba 3e aa 06 d9 be
       0.25130504 0.2284618 0.36364073 -0.42387897
000070 fe 54 e5 be 86 a3 9f 3e 59 7e ec 3e b4 63 8d 3e
       -0.44791406 0.31179446 0.46190146 0.2761513
000080 47 11 cd 3e 84 8b 21 3e a8 14 7f 3e 54 4e 21 3f
       0.40052244 0.15775877 0.24910223 0.63010144
000090 e9 ee a7 be be e3 5f 3e 1c b4 68 bf 24 42 16 bf
       -0.3279946 0.2186422 -0.90899825 -0.5869467
0000a0 ec c5 93 bd ff 49 ff 3d 60 59 07 3b 07 e0 7e be
       -0.07215485 0.124652855 0.0020652637 -0.24890147
0000b0 ac 00 c7 bd 67 6b 87 3e 8f f6 1a 3d 58 d1 31 be
       -0.09716925 0.2644913 0.037832793 -0.17365015
0000c0 d5 73 6c 3e 1a 29 d4 be 9f 5a c1 be 80 5a 58 3e
       0.23091061 -0.41437608 -0.3776445 0.21128273
0000d0 5c 1f c1 3e c9 fa ad 3d b8 15 eb bd c2 a7 07 bf
       0.37719238 0.08495099 -0.11478752 -0.52990353
0000e0 69 4b a3 be 25 ba 99 3e 2a bf 0b bf 21 40 10 bf
       -0.3189347 0.3002483 -0.5458857 -0.5634785
0000f0 f3 cb f6 bd e0 29 be 3e ea 5d 07 bf b2 a2 18 be
       -0.12050619 0.37141323 -0.52877676 -0.14905813
000100 d0 54 06 bf 17 28 d8 bd 26 0c 7b 3e c8 76 20 3e
       -0.52473164 -0.105545215 0.24516353 0.15670311
000110 14 f2 80 be 4e 1a 92 3e 2e 87 1d 3f 28 0c d6 3e
       -0.2518469 0.28535694 0.6153439 0.4180615
000120 80 b1 a8 3c fc f5 32 be d8 0a 05 3e e2 60 8d be
       0.020592451 -0.17476648 0.12992418 -0.27612978
000130 c1 93 c6 bd b1 07 0d 3f 32 6e 23 be 9e 7a f5 3e
       -0.096961506 0.5508986 -0.15960005 0.47945112
000140 ac 68 b0 be d7 1e ff bd 91 f1 c0 3e d6 8a 00 be
       -0.34454858 -0.12457054 0.376843 -0.12552962
000150 50 95 fa 3d 8d a6 fd 3e 69 64 cd be 74 ce 32 3e
       0.1223551 0.4954113 -0.4011567 0.17461568
000160 53 dd 76 3d 56 fc ae 3d 40 15 c0 be 0d ac 2f bd
       0.060269665 0.08544223 -0.37516212 -0.04288869
000170 2b 42 05 be 29 5e d3 bd 0e 67 16 bf f8 74 26 be
       -0.13013522 -0.10320694 -0.58751 -0.16255558
000180 69 36 c8 bd b7 0d c0 3c ef 2b 8b be 24 54 01 bf
       -0.09776003 0.02344404 -0.27181956 -0.50519013
000190 6b 76 af be c6 93 30 3e 5a 8e 2f 3e a6 58 7a 3e
       -0.34270033 0.17243871 0.17144147 0.24447879
0001a0 78 d1 98 be 42 1e 57 bd 51 68 0d bf 45 dc a9 3e
       -0.29847312 -0.05251909 -0.552373 0.33175865
0001b0 34 70 f9 3e c8 57 8c bd 04 2b ee 3e 0b 4c 97 3e
       0.48718417 -0.068526804 0.46517193 0.29550204
0001c0 32 b7 e8 3c 77 64 a7 3e 2a 68 68 3e 8d 43 af be
       0.028407667 0.32693836 0.22695985 -0.34231225
0001d0 74 a4 8f be 5e 72 09 bd 8e 74 7f 3e a3 52 b9 3e
       -0.28055155 -0.033556335 0.24946806 0.3619586
0001e0 8a 10 03 bf f7 70 96 3d a2 b1 6f 3e b6 58 cc 3e
       -0.5119711 0.07345765 0.23407605 0.3991143
0001f0 47 59 98 3e c5 da ad be 7a 96 de 3e 59 aa 9d 3e
       0.29755613 -0.3395597 0.4347418 0.30794027
000200 48 3b cb 3c 72 3b d2 3e 92 ba 87 3e 0f 09 b5 be
       0.024808541 0.41060978 0.2650953 -0.35358474
000210 7f 09 99 3e 86 04 96 be f5 72 fa be 6e 12 0c bf
       0.29890057 -0.29300326 -0.4891583 -0.5471562
000220 13 a5 cc 3e 27 ad c5 be 1f c4 3a 3e f5 8b 60 3e
       0.39969692 -0.38608667 0.18238877 0.2192839
000230 dc d6 e9 be 32 c5 ad be 3a 8c 7b 3e 7d ee 6c 3d
       -0.45671737 -0.3393951 0.24565211 0.057844628
000240 f9 19 6f be 34 ba 60 be 6c ad fd 3c 6b 40 02 3f
       -0.23349752 -0.21946031 0.030966483 0.50879544
000250 a5 3a 09 3e a5 ef 21 3e b0 fc 22 3e 4d b5 ce 3e
       0.13401277 0.15814073 0.15916705 0.40372697
000260 8c 91 0a 3d bf 5a df bc c8 ae df 3e 34 a5 d5 3e
       0.03383021 -0.02726495 0.43688035 0.41727602
000270 19 c5 9d 3e 70 f3 83 3b d8 d8 e1 be ae 2d e6 be
       0.30814436 0.0040268227 -0.4411075 -0.44956726
000280 2a 0f 87 3d a7 fb b9 3e 00 c3 39 3f 4f 58 13 3f
       0.06594689 0.36324808 0.7256317 0.57556623
000290 96 3f c7 be b4 a7 a8 3e 1e f7 8f be 5c 4e cc bd
       -0.389157 0.32940447 -0.28118223 -0.09975883
0002a0 fc 16 66 3e a7 55 df be 7b 80 17 ba 2e b4 0a 3f
       0.22469705 -0.43620035 -0.0005779338 0.5418118
0002b0 39 f8 2a be e8 85 e6 be b3 e5 6d be 28 df 99 bd
       -0.16696252 -0.45024037 -0.23232155 -0.07513267
0002c0 25 a7 13 be ff db 88 be 16 ee 57 be c7 21 c5 bd
       -0.1441923 -0.26730344 -0.21086916 -0.09625583
0002d0 9e 87 33 be 06 4f e2 3e 96 54 3f be ae b5 ec be
       -0.17532203 0.44200915 -0.1868461 -0.4623236
0002e0 07 9f 5b 3e 69 dd fa be d3 29 8a 3c 91 c7 2d be
       0.21447383 -0.48997048 0.016865646 -0.1697066
0002f0 c1 0c f6 3e d6 a8 8a be 62 17 db 3e 80 36 aa 3e
       0.48056605 -0.27081937 0.42791277 0.33244705
000300 11 37 09 3e a0 02 f2 bd 54 cd 57 3f 27 d3 9e 3d
       0.13399912 -0.11816907 0.8429768 0.07755118
000310 ef 5a 69 bd d0 54 fe 3d 3b b6 60 3d 25 b2 13 3f
       -0.056971487 0.124185205 0.05486129 0.576937
000320 13 66 46 be 53 8d 11 3d 54 b3 aa 3d 32 55 cb be
       -0.19374876 0.035535168 0.083349854 -0.39713436
000330 d9 5f b7 3e ef 14 5b be 3c 6d 6a bd 51 fd f5 3d
       0.35815313 -0.21394704 -0.05723308 0.12011207
000340 d6 e3 b6 3d 7a 53 3d be 53 b8 94 be de 52 1e bd
       0.08930175 -0.18488875 -0.29046878 -0.038653247
000350 6c c7 94 bd 9c ba f3 bd 7b ff 93 bd 0e fd 24 3e
       -0.07264599 -0.11900827 -0.072264634 0.16112158
000360 74 50 0b 3c 7d 7e a0 3e bd 2e df 3c d2 e3 44 3e
       0.008503068 0.31346503 0.027243966 0.19227532
000370 bc bc d7 3e 10 e6 a7 3d 5c b4 aa 3e 10 55 1d 3f
       0.4213618 0.08198178 0.33340728 0.6145792
000380 a4 83 c0 3e 92 56 8b 3e fc 4f 34 bd 94 5c e9 be
       0.37600434 0.27214485 -0.04402159 -0.45578444
000390 8b c9 02 bf 60 26 37 be 96 7c 64 be 4c 2b cf bd
       -0.5108878 -0.17885733 -0.22313151 -0.1011568
0003a0 6b c6 87 bd 09 91 cd 3c ab 85 3a bf 2f cc 1b bf
       -0.06629642 0.025093572 -0.7286021 -0.60858434
0003b0 04 42 80 be 70 23 00 3f 78 65 2b be 52 32 d9 3e
       -0.25050366 0.50054073 -0.16737926 0.42421204
0003c0 ca 93 83 be 8e 08 c4 3e 83 c0 16 bf 48 12 16 be
       -0.25698692 0.38287777 -0.588875 -0.14655411
0003d0 84 ce f1 3e 4d 13 c8 3d f3 4e b1 3e 02 14 06 3f
       0.4722787 0.09769306 0.34630546 0.5237428
0003e0 c1 06 94 be 0e 11 cf 3e 25 fa 9c 3e 4e 00 68 3e
       -0.28911403 0.404427 0.30659595 0.22656366
0003f0 41 31 b6 3e 8a 23 5f 3d e1 d7 49 3f de 77 e5 3e
       0.35584453 0.054477252 0.7884503 0.44818014

fc1.bias f4 [128]
000000 67 2c 02 bf c6 6b 0b 3e 65 fe 14 3e 8a 3e 3e 3d
       -0.50849 0.13615331 0.14550169 0.04644636
000010 b0 f2 ab 3e b2 34 f4 3e 78 32 25 3e 49 94 a2 be
       0.33583593 0.47696453 0.16132534 -0.31753758
000020 ad 84 b4 3e ec a1 e7 3e a3 17 ff 3c dd 50 b8 be
       0.35257474 0.45240724 0.0311392 -0.35999194
000030 55 c5 c7 be b0 af ca 3e 70 05 93 3e be 9a ae 3e
       -0.3901774 0.39587164 0.28715086 0.34102434
000040 b3 6d f1 3e 61 cc 80 3e 80 42 e6 be d8 09 49 3e
       0.47154006 0.2515593 -0.4497261 0.19632661
000050 f3 79 c3 be 81 16 89 ba a7 b6 d7 bd b2 00 bf 3d
       -0.38178977 -0.0010458977 -0.10532885 0.093263045
000060 2f d4 80 3e d2 86 68 3e d5 f3 4f be b7 f6 98 3d
       0.25161883 0.2270768 -0.20307858 0.07468932
000070 ef 4c 59 bb d2 90 a4 be 3c 7b 04 3e 45 87 a2 3c
       -0.0033157428 -0.3214174 0.12937635 0.019839892
000080 44 c0 d5 be f5 fa c3 3d 36 52 49 bc 43 a5 7d 3e
       -0.4174825 0.09569351 -0.012287667 0.24770074
000090 19 fc 23 3e f4 0c e8 be 4d 93 f4 3d 9a c7 c4 be
       0.16014136 -0.45322382 0.11942158 -0.38433534
0000a0 e1 1b 1e 3e 2d 6a c3 be 89 83 49 3d 65 9b c4 be
       0.15440322 -0.38166943 0.049197707 -0.38399807
0000b0 cc d3 f0 be 95 31 01 3f 83 0f ff 3e d4 af fb 3d
       -0.47036588 0.5046628 0.49816522 0.12289396
0000c0 9e d0 ea 3e d3 4a 8e 3e 43 de 04 bf 41 2d 82 be
       0.45862287 0.2779146 -0.51901644 -0.2542515
0000d0 1f 88 3f ba 7d 48 b9 be b2 9f c9 3e 49 1d 5e 3e
       -0.00073063554 -0.36188117 0.3937965 0.21690859
0000e0 f3 e2 f9 3c 2f 21 1e 3e f5 66 94 3e a4 58 b9 3e
       0.030503726 0.15442346 0.289848 0.3620044
0000f0 6f 61 bf 3b 4f 2f fd 3d f5 52 80 be e0 98 d8 3e
       0.0058404724 0.12362539 -0.2506329 0.42304134
000100 1d 3f b2 3e 2f 5e 63 3e 91 96 b3 3e 75 ca 69 3e
       0.34813777 0.22203897 0.3507581 0.22831137
000110 66 dd d1 be df 85 95 be 00 79 ba be 6b eb a6 3e
       -0.40989226 -0.29203698 -0.3642044 0.32601485
000120 38 27 01 bf 47 c8 2f be 17 0d 80 3e ee 27 af bd
       -0.5045047 -0.17166243 0.25009987 -0.08552538
000130 49 8d 01 3e 2b a7 ea bd 9d 23 b9 bc a3 25 e8 3e
       0.12651552 -0.11457666 -0.02259999 0.45341215
000140 70 3f 13 3e 79 95 cf 3e 6f ec 14 be a7 80 49 3e
       0.14379668 0.40543726 -0.14543317 0.19677983
000150 99 18 f1 3e a9 fd 5c 3e 22 ea 66 be ee 8a 99 3e
       0.4708908 0.21581139 -0.22550252 0.29988807
000160 81 93 90 be 3e 6f ec 3e b1 e6 93 3d ec f3 3d be
       -0.28237537 0.4617862 0.07221735 -0.1855008
000170 85 77 30 3d 79 4b 6f 3e 83 7f af 3e 60 76 5a be
       0.043082733 0.23368634 0.3427697 -0.21334219
000180 5d 1a 89 be 6c c9 aa be c8 ff fe 3e 10 18 ca be
       -0.26777926 -0.33356798 0.4980452 -0.39471483
000190 ad d7 9d be a2 06 c6 3c f9 90 15 3e 7a c4 fd be
       -0.3082861 0.024173085 0.14606084 -0.49563962
0001a0 a2 33 2a be 6c fa af bd 3c 4f 86 be f3 96 9d 3e
       -0.16621259 -0.08592686 -0.26232326 0.30779228
0001b0 98 31 9e be d0 81 da be ac f5 0a 3e ae d6 20 3e
       -0.30897212 -0.42677164 0.13570279 0.15706894
0001c0 7e 23 ee 3e e4 75 89 3d 83 28 54 3e 3f 7f bb 3e
       0.46511453 0.06711939 0.20718579 0.3662052
0001d0 35 25 4f be 6d bf de 3e 8c 33 f6 3d d8 33 3f 3e
       -0.20229037 0.4350542 0.120215505 0.1867212
0001e0 46 15 f2 be 9b 07 d9 be b2 99 20 3e 04 0f d5 be
       -0.47281855 -0.42388615 0.1568363 -0.4161302
0001f0 64 4a 9e 3c 67 88 d3 be 58 b4 63 be f3 a4 dc bd
       0.019322582 -0.41315004 -0.22236764 -0.10773649

fc2.weight f4 [2, 128]
000000 c3 52 1f bc 69 e1 84 be 05 3d fd 3d c0 38 2c 3d
       -0.009724322 -0.25953224 0.12365154 0.04204631
000010 51 2e fa bd e8 c2 0f 3e a8 a8 8e 3d 08 4c 8f 3a
       -0.122158654 0.14039195 0.069657624 0.0010932693
000020 6e 82 ed bd 21 64 ba 3d 45 b6 58 3d 09 4c 46 bd
       -0.11597143 0.09101129 0.0529082 -0.048412357
000030 9a 04 87 3d a4 96 15 3e 78 eb a9 3d 77 4b 99 3d
       0.065926746 0.14608246 0.08296865 0.07485097
000040 c1 c1 d2 bd 6e 5c 16 be 31 49 83 3d f7 41 1f bd
       -0.10290862 -0.14683697 0.064104445 -0.03888127
000050 86 5a 4f 3b 1f 3e cf 3c 69 8a 24 3d 62 f4 6b 3e
       0.003163965 0.025298176 0.04017106 0.23042443
000060 f8 a0 1f 3e 49 87 19 be 7c 52 26 3d 20 1d 2a be
       0.15588748 -0.14993013 0.040606007 -0.16612673
000070 24 77 90 3d 20 13 84 bd a0 45 f8 bd 41 9e f4 bb
       0.07053974 -0.0644896 -0.12122655 -0.0074651544
000080 f2 af 40 bc 7c 67 ab 3d 4e fd 01 be c8 f4 78 bd
       -0.011760699 0.083693475 -0.12694284 -0.060780317
000090 a2 1e 0e bd a2 5c 41 bd a2 4e 5a be b6 8d 26 bd
       -0.034697182 -0.047207482 -0.21319059 -0.04066249
0000a0 9b a9 63 be 5a e5 de bc 4c 2e cd bd a4 16 5d bd
       -0.22232668 -0.027208973 -0.10018596 -0.05397667
0000b0 9a 43 52 3d 58 1c 02 3e ee 05 20 bd d6 c7 f2 bd
       0.051334 0.12706125 -0.039068155 -0.11854522
0000c0 64 10 eb 3c 58 8e b5 bd 1f df 3c bd a0 5a 39 3d
       0.02869434 -0.088650405 -0.046111222 0.045252442
0000d0 fa 69 02 3e 43 81 a2 3d d7 3b d0 3b b8 f9 45 be
       0.1273574 0.07934811 0.0063547897 -0.19333541
0000e0 67 1e ab 3d d7 ee cf 3c 25 68 84 3d 58 52 49 bc
       0.08355408 0.025382442 0.064651765 -0.012287699
0000f0 43 2b f3 bc 46 f8 3d be 0d fe 03 3d ee 2f 86 bc
       -0.029683715 -0.1855174 0.032224704 -0.016380277
000100 e3 71 08 3e 01 37 c6 3c 41 a8 b3 bc fc 8b b8 bb
       0.13324694 0.02419615 -0.021930816 -0.005631922
000110 b3 46 3a bc 5a 04 86 bc f7 1f 5f 3d 94 0c f2 3c
       -0.011369395 -0.016359497 0.054473843 0.029547013
000120 a0 ce 92 3d c4 ed 3a 3d 08 6b d0 bc c3 6c 37 3c
       0.07168317 0.045636907 -0.025441661 0.011195364
000130 3e 0d 7c bd 39 1d bd 3d 82 b8 14 bd 83 98 83 3c
       -0.061536066 0.092340894 -0.036308773 0.016063934
000140 2f d3 84 be df b9 81 3d c1 3d 9a bc f2 a6 c8 3d
       -0.2594237 0.0633428 -0.018828275 0.09797467
000150 06 96 b0 3c 00 21 6b 3e 63 c1 52 3d 33 e0 13 3e
       0.021555912 0.22961807 0.05145396 0.14440994
000160 a1 e8 5e bd cf 9d 60 3d 7b b2 cb 3d 52 d9 67 bd
       -0.05442107 0.054837998 0.09946152 -0.056603737
000170 ce 4a a3 3d fa 3a 45 3d 0e 02 ab 3d 3e b1 f1 bc
       0.07973252 0.048151948 0.08350001 -0.029503461
000180 07 c8 7c bd 20 c7 f9 bd c6 a7 24 be d2 ab 8f 3d
       -0.0617142 -0.12196183 -0.16079625 0.07015194
000190 11 2a df bc df 5c 64 bd cd 5d ae 3c 49 4e ef bb
       -0.027241739 -0.05575263 0.021284962 -0.0073030335
0001a0 9d 4a 99 3d cd 77 55 bd 29 41 a7 bc 7d 68 13 3e
       0.074849345 -0.052116204 -0.020416813 0.14395328
0001b0 25 f5 19 bd fc ae ea bd 41 3f 32 3b b2 79 a3 3e
       -0.037587304 -0.11459157 0.0027198347 0.31928784
0001c0 87 03 c0 3d 99 14 0b 3e cb 75 09 be 8a 86 95 bb
       0.09375673 0.13582076 -0.1342384 -0.0045631574
0001d0 38 30 06 3e d5 41 a0 bb 81 19 0c 3e a7 a5 53 bc
       0.13104331 -0.0048906603 0.13681604 -0.012917913
0001e0 0d c1 ff bc 61 e8 3a be ab 3f 39 3e 1a 7c 60 3c
       -0.031219983 -0.18252708 0.18090694 0.013701463
0001f0 af 76 3e be 44 cb a7 bd 30 67 e0 3c b5 b4 3b 3d
       -0.18599962 -0.08193067 0.027392954 0.045826633
000200 18 6a 16 bc 0b e2 2c 3e 72 0b 9b ba 98 40 02 be
       -0.009180568 0.16883104 -0.0011828972 -0.12719953
000210 74 53 c2 3d 46 4d 0f be 1f 7e 55 3d 60 9e 25 3d
       0.09488574 -0.13994321 0.05212223 0.04043424
000220 8d 98 35 3e a2 62 c5 bd 91 15 cf bd 5c 47 ef bc
       0.17733975 -0.09637953 -0.10111535 -0.029208831
000230 65 d6 32 3d 35 de 03 bd bf 5b 01 bd ce b2 30 ba
       0.043661494 -0.032194335 -0.031581637 -0.0006740511
000240 39 16 f1 3d 8f 5f 67 3e b0 86 b2 3b 2f 07 c6 3d
       0.11771817 0.22595046 0.005448185 0.09669339
000250 7e 9f 47 bd 3e af af 3d 51 92 75 bd 91 f9 72 be
       -0.048736088 0.08578347 -0.05995399 -0.23728015
000260 37 7c 1d bb 80 19 7a 3d 99 9c d6 bc 19 e2 0a 3e
       -0.0024030337 0.061059475 -0.026197718 0.13562812
000270 9e 8e 20 bd d4 11 02 3d 57 c3 23 3e 6c 21 92 3c
       -0.03919851 0.031755283 0.15992485 0.017838202
000280 76 1c 7e 3c ac 36 0b be ec 31 33 bc 11 38 4b 3d
       0.015509715 -0.13595074 -0.010937195 0.049614016
000290 96 73 07 3e 5f 5d 10 3c de 47 fd 3d 75 1e c6 3c
       0.13227686 0.008811324 0.12367223 0.024184445
0002a0 43 ac 7a 3e 9c 02 0e bd b6 f4 f0 3d 80 07 8a bd
       0.24479775 -0.034670457 0.11765425 -0.06739712
0002b0 c0 77 13 3d e6 4e a8 bd 58 65 19 bc cb 7d c0 bb
       0.036002874 -0.08218174 -0.009362541 -0.0058743707
0002c0 34 a5 ae 3d cf 80 27 3e c9 9c 11 bd 59 82 a7 3d
       0.08527604 0.1635773 -0.035549913 0.08179159
0002d0 37 2f 94 bd cd f9 aa bd 1f 01 ed bc ba c1 19 3e
       -0.07235568 -0.08348427 -0.028931199 0.15015307
0002e0 da 60 db bd 06 54 cd 3c 0e 61 3a be e6 4c 8f 3d
       -0.10711832 0.02506448 -0.18201086 0.06997089
0002f0 2d b9 d8 bd 50 47 14 3e b0 c4 5c 3d b5 f1 24 3e
       -0.105821945 0.14480329 0.053898513 0.16107829
000300 5c 9b b1 bc f6 69 26 3d 4f 6a 65 3c cd cc 66 bc
       -0.021680526 0.040628396 0.014002397 -0.014086914
000310 95 50 ad 3c 1e e0 2b bd a5 6c fb bc ea de d9 3d
       0.021156589 -0.04196178 -0.030691454 0.106382206
000320 bf f6 58 3c b4 11 30 bd a4 1c 99 bb f0 30 24 3d
       0.013242423 -0.042985633 -0.0046726037 0.040085733
000330 44 2f 31 3e 2f bf 87 3b ea 23 eb bc e8 4a ed 3d
       0.17303187 0.004142664 -0.028703649 0.11586553
000340 49 e1 29 3e 97 6d e6 bd 57 bf b8 bd be d0 15 bc
       0.16589846 -0.11251371 -0.0902087 -0.009144006
000350 ad 24 c2 bd 07 4c 8e bd d0 ef cc bc f7 ea e7 bd
       -0.094796516 -0.06948095 -0.025016695 -0.11324113
000360 d2 98 76 bd 2d a5 cd 3d 9f 2d 9c bd d6 5b b4 3d
       -0.060204335 0.100412704 -0.07625889 0.08806579
000370 a5 b9 24 be 32 47 ba bd db 7f 4b bd 51 9d 11 3d
       -0.16086443 -0.09095611 -0.04968248 0.03555042
000380 e2 be 0f 3d da c9 73 3c 3f ed 04 3e da 98 15 3c
       0.03509415 0.014879668 0.12981127 0.009130681
000390 96 88 e7 3b 78 94 c5 3c 79 aa 18 be 8e 9a 9f bd
       0.007065843 0.024118647 -0.1490878 -0.07793151
0003a0 e8 50 28 3d c7 6a d3 bd a0 54 1a bd 1a 17 13 be
       0.041092783 -0.103231005 -0.03767836 -0.14364281
0003b0 4b 28 c4 3d b8 4d 00 3e 2d 1c 56 3c 1c ac 6d be
       0.09577998 0.12529647 0.013068241 -0.23210186
0003c0 cb d4 8c bd ce b8 52 be 17 a0 1b 3e 98 6a 05 bd
       -0.068765245 -0.2057831 0.15197788 -0.03257236
0003d0 c4 f9 0f bd e9 b5 8c bd 84 44 41 be 97 0c 16 3e
       -0.035150304 -0.06870634 -0.18873793 0.1465324
0003e0 c3 98 33 3d 6f 09 74 3d 64 e1 5e be a4 ee f6 3a
       0.043846857 0.05957931 -0.21765667 0.0018839431
0003f0 aa 03 32 3e 1c 86 97 bd ba 48 e5 bb 2a 13 19 bd
       0.1738421 -0.07398626 -0.006997195 -0.037371792

fc2.bias f4 [2]
000000 e8 30 0d bd b0 b5 41 bd
       -0.03447047 -0.04729241
