dqn/main_dqn_model.pt (torch, 71951 bytes, 6 tensors)

layer1.weight f4 [128, 4]
000000 bd 02 3e bd 75 0f 57 be 8a 53 d7 be 1b 7c ba 3e
       -0.04638933 -0.2100199 -0.42055923 0.3642281
000010 dd 7e 72 3e 09 6a 6b 3e 69 e1 fc 3b 4a 00 3a bd
       0.23681207 0.22989668 0.0077173007 -0.045410432
000020 b0 ca f9 3e e6 30 02 bf ec 20 3f be 8d 5c c2 3e
       0.4878745 -0.50855863 -0.18664902 0.37961236
000030 42 bf e7 be 3c d3 ee be ef b2 d4 3e c8 33 9c be
       -0.45263106 -0.46645534 0.41542765 -0.30508256
000040 c0 b2 10 3f 8d 90 d0 3d 16 8e 8b bf e4 01 9e be
       0.5652275 0.10183821 -1.0902736 -0.30860817
000050 04 7b 48 3e 96 a6 63 be 81 10 4b 3e 2a 38 2e be
       0.19578177 -0.22231516 0.19830514 -0.17013612
000060 54 31 21 bf 5a ec 36 be df 32 85 3d d0 eb bf 3e
       -0.62965894 -0.17863598 0.065038435 0.37484598
000070 18 82 0f be a2 dc 82 3e 22 e4 cc 3e 24 c2 be 3e
       -0.1401447 0.25558954 0.40017802 0.37257493
000080 d2 d2 73 3e c1 92 0d be 98 58 99 3b c4 4f 78 be
       0.2381089 -0.13825513 0.0046797507 -0.24249178
000090 51 c8 12 be 78 d2 22 bf c8 83 38 bf b2 cb 02 bf
       -0.14334227 -0.636024 -0.7207608 -0.51092064
0000a0 c2 69 f9 3e 75 ac 82 3e df 24 a6 3e fd b4 b2 3e
       0.487135 0.255222 0.32450005 0.34903708
0000b0 dc be dd 3e 60 c3 97 be 5e 54 a2 be 6e fd 9c be
       0.43309677 -0.29641247 -0.31704992 -0.30662102
0000c0 34 0b ae be ab d8 a7 be 1b 4f d4 3d d7 36 bc bd
       -0.33992922 -0.32782492 0.10366651 -0.09190147
0000d0 ba 47 96 3e 99 d3 60 bd 07 cf cd bf 0c be a9 be
       0.29351598 -0.054889295 -1.6078805 -0.33152807
0000e0 52 f2 46 bd f6 5b ec be af ac 12 3e de 16 ad 3e
       -0.04857094 -0.4616391 0.14323686 0.3380651
0000f0 f8 c5 ae be c6 45 d8 be fa 8a 87 3e 17 62 e3 be
       -0.34135413 -0.42240733 0.26473218 -0.44410774
000100 56 38 87 3e 30 c7 a1 3e 9b 42 54 bf 0a 29 a1 be
       0.26410168 0.3159728 -0.8291413 -0.31476623
000110 32 ce ab 3e 40 27 12 3f 5e e7 a0 be 41 e8 43 3e
       0.33555752 0.5709114 -0.3142652 0.19131567
000120 32 ed 54 3e 09 68 3a 3f 68 25 9c 3f 19 7a ed 3e
       0.20793608 0.72814995 1.2198915 0.46382216
000130 d0 ea a8 be 8c 19 e2 be c8 6d 6f bf 4a 80 a5 be
       -0.32991648 -0.44160116 -0.9352689 -0.3232444
000140 89 64 a6 3e 2e bb 8b bc 46 d6 69 bf f9 f3 92 be
       0.32498577 -0.017057028 -0.9134258 -0.2870176
000150 f8 f1 e6 3d b0 98 3d be cf 15 08 bf d5 3b b3 be
       0.112766206 -0.18515277 -0.5315828 -0.35006586
000160 79 09 28 3f ba 7b e2 3e 32 af 9c 3e 5b c1 a7 3e
       0.65639454 0.4423502 0.30602413 0.32764706
000170 87 f3 f5 be 1f d8 d0 be 84 0d 16 3f 81 18 10 3e
       -0.4803736 -0.40789887 0.58614373 0.14071847
000180 33 a7 a4 be 2a d7 fd be e1 31 92 be a6 59 e9 be
       -0.32158813 -0.4957822 -0.2855368 -0.4557621
000190 ed 33 9d 3f 0c 2a 29 3e 6a 3e ba be ab d1 88 3d
       1.2281471 0.16519946 -0.36375743 0.06680616
0001a0 b8 d4 ab 3e 0a e3 3e 3f 0f 2c fe 3e cb c7 0d 3f
       0.3356073 0.74565184 0.4964299 0.55382985
0001b0 85 66 08 3e 08 8a 23 be a6 b6 b9 bd b3 4c 9e be
       0.13320358 -0.15970623 -0.090680405 -0.30917892
0001c0 90 1c a4 bd 92 34 5b 3e a0 05 cd be 95 fd ee be
       -0.0801326 0.21406773 -0.40043354 -0.46677843
0001d0 d2 64 49 3f 07 1d e3 3e d8 06 ad 3f f8 7d b0 3e
       0.78669465 0.44358084 1.3517714 0.34471107
0001e0 71 78 9f 3f 60 b6 f3 3e 17 22 66 3f 5c 1a b4 3e
       1.2458631 0.4760008 0.89895767 0.3517636
0001f0 ec 66 d8 be 9a e5 a8 be bc 0a 24 3f 14 7e 9e 3e
       -0.42266023 -0.32987672 0.6407888 0.30955565
000200 6f 88 a4 3d 63 99 0d bf 99 9f 48 be d3 a3 8d 3e
       0.08033835 -0.55312175 -0.19592132 0.2766405
000210 60 29 f6 3e 24 57 2a 3f 7c 4d 8b 3f e6 3f f9 3e
       0.48078442 0.66539216 1.0883021 0.48681563
000220 37 3b 88 bb 5e b8 1c be 6b e6 40 3e 8e 52 79 3d
       -0.0041574496 -0.15304706 0.18837897 0.060869746
000230 21 aa a2 3e c4 ec b0 3e 75 63 95 bf 19 6d 05 bf
       0.31770423 0.34555638 -1.1670977 -0.52119595
000240 5e 5b 90 be 8d e3 e0 be dc 92 74 3f 37 c4 4a 3e
       -0.28194708 -0.43923607 0.9553659 0.19801413
000250 d9 5f 9c 3f 03 b3 16 3f 76 3a e8 3f 4a b7 02 3f
       1.221675 0.588669 1.8142841 0.51060927
000260 04 21 c4 3e 42 b1 9e 3e d0 48 0a bf 24 10 28 be
       0.3830644 0.30994612 -0.54017353 -0.16412407
000270 58 d1 d1 be 6f bc 95 bd b6 6c 44 bf 75 04 fd be
       -0.4098003 -0.073113315 -0.7672838 -0.49417463
000280 ca 4c 01 3f f1 32 37 3f 0a db c7 3e 7a b4 f6 3e
       0.50507796 0.71562105 0.390343 0.48184568
000290 5e a9 de be 2c de ee be 49 3d 87 bf cb 7e b0 be
       -0.43488592 -0.4665388 -1.0565578 -0.34471735
0002a0 fd 03 98 3e 43 80 a8 be 44 3e d9 bd 70 81 2d be
       0.29690543 -0.32910356 -0.10607579 -0.16943908
0002b0 d0 02 58 be ef 20 ff 3e 1e a3 80 be 66 7d c5 be
       -0.21094823 0.49829814 -0.2512445 -0.38572234
0002c0 84 95 cb 3c 65 42 0f bd 23 76 bb bf 39 46 b7 be
       0.024851568 -0.034975428 -1.4645427 -0.35795763
0002d0 02 10 42 3e 86 e1 8b be 0b 98 20 bf 62 47 d7 bc
       0.18951419 -0.27320498 -0.62732 -0.026279155
0002e0 8f 1d 02 bf 5e fe 1d bd 80 be 63 bc 09 5b bc 3e
       -0.5082635 -0.03857266 -0.013900399 0.36788204
0002f0 49 52 df be 42 ab ae bd 14 87 8c bf 7b f0 0b be
       -0.43617466 -0.085287586 -1.0978723 -0.13665955
000300 d3 1f e8 bd 71 a5 56 be cb b2 87 3f 0f b4 9b 3e
       -0.11334195 -0.20961548 1.0601438 0.3041081
000310 0d d6 58 bd 5b bf 2f 3e c7 b1 26 be a1 75 4e be
       -0.05293851 0.1716284 -0.16278754 -0.2016206
000320 70 89 a4 be 7f 50 04 bd 33 51 0e 3f 5f 8b 2e be
       -0.32136106 -0.03230333 0.5559265 -0.17045353
000330 b9 08 bb 3e 18 b3 30 3e 0b 07 a8 bf bd cb 5c be
       0.36530092 0.17255819 -1.3127149 -0.21562095
000340 36 03 44 3f e5 e4 ca be 35 65 99 bf 38 81 e0 be
       0.765674 -0.39627758 -1.1984011 -0.43848586
000350 d1 20 a1 3c 90 55 3a bd 3b 1f 4e 3f ac 88 c9 3e
       0.019668968 -0.045491755 0.80516404 0.39362085
000360 df 86 07 bc db c0 a5 bd ea 73 80 3f 8e f5 53 be
       -0.008271902 -0.08093425 1.0035374 -0.2069914
000370 ab ca 26 3f 96 90 a1 3e 07 84 cd 3f 06 9e 82 3e
       0.65152997 0.31555623 1.6055917 0.25511187
000380 6d 52 c7 3e 3b 8a fd be e0 5f 43 bf 97 e3 8a 3d
       0.38930073 -0.49519524 -0.7631817 0.067816906
000390 43 29 ac 3d ef 4e eb be d0 93 92 bf 2c a8 ba be
       0.084063075 -0.4595866 -1.1451359 -0.3645643
0003a0 65 dc 11 bf 79 a8 0f 3f 3a aa 4c be 4e f3 f4 be
       -0.5697692 0.56116444 -0.19986811 -0.47841877
0003b0 c1 8e 97 3e 0e 7e b6 be 59 c5 1a 3f 95 45 ef bd
       0.296011 -0.35643047 0.6045738 -0.116831936
0003c0 ae 18 cc bd 2a c4 29 be c2 86 4a 3f 9b a1 d2 3e
       -0.09965645 -0.16578737 0.79111874 0.4113892
0003d0 d3 ce cf 3c 29 0d 21 3f e5 87 a4 3f 5b 43 f2 3e
       0.025367176 0.62910706 1.2853972 0.47317013
0003e0 f5 47 ea 3e 00 04 b1 be 1f c0 c2 be fb 56 6b 3e
       0.45758024 -0.34573364 -0.38037202 0.22982399
0003f0 7d 7c 8b be cb 46 c5 bd b4 1a b7 3e c8 0b de 3e
       -0.27243415 -0.09632643 0.3576256 0.43368363

layer1.bias f4 [128]
000000 8d 87 15 3f 66 36 32 3f fd ac 34 3f a6 3a 83 3d
       0.5840996 0.69614255 0.7057646 0.06407671
000010 91 b4 bd be 48 c9 11 3f 23 df d9 bb 5f 65 07 3f
       -0.37051824 0.56947756 -0.0066489144 0.52889055
000020 a4 e7 25 3f 98 f4 e0 3e f3 a8 24 3f 0c 8c ee be
       0.6480658 0.4393661 0.64320296 -0.46591222
000030 ee 6a 12 3f 6f 83 a2 be b2 fb 1c 3f f9 08 29 3f
       0.5719441 -0.317409 0.61321557 0.66029316
000040 b4 13 06 bf f7 70 0f 3f 7a 36 7c 3e 65 6c f3 3e
       -0.52373815 0.56031746 0.24630156 0.47543636
000050 eb c8 e0 be 4c 53 c7 be 3c cb ec 3e 0a d2 94 be
       -0.43903288 -0.38930738 0.46248806 -0.29066497
000060 a3 03 10 3f ed 05 cf bd 02 62 9c 3e 83 59 33 3f
       0.5625555 -0.10108552 0.30543524 0.7005846
000070 a6 4e f1 be 0c 50 af ba 01 88 8c bd e4 ad 13 bf
       -0.47130316 -0.0013375296 -0.06861878 -0.5768721
000080 d9 10 06 3f 13 6f 7c 3b ec 63 0d 3f 60 d8 af be
       0.5236946 0.0038518354 0.55230594 -0.3434477
000090 2c 03 0c be b8 e4 9f 3e c0 4d 15 bf 52 1d 09 3e
       -0.13673085 0.31229186 -0.5832176 0.13390091
0000a0 4a db 6c 3e 55 c8 51 3d 74 8f cf 3e 85 86 d8 3e
       0.23130527 0.051216442 0.40539134 0.4229013
0000b0 29 3e da be 95 91 ba 3e 06 03 6b be 9b aa 12 3d
       -0.4262555 0.36439195 -0.22950372 0.035807233
0000c0 2a dc 02 be 2e df 06 3f ab a3 e2 3e 93 c9 8e be
       -0.12779298 0.52684295 0.44265494 -0.27888164
0000d0 c3 e8 e8 be 5d c9 ae be cf f8 7c 3e a2 bf 37 bd
       -0.45490083 -0.34138003 0.24704288 -0.04486049
0000e0 9b 3d af 3d 00 62 75 3d c1 5f e4 3e aa ff dd 3e
       0.08556672 0.059907913 0.44604304 0.4335912
0000f0 a7 2d 20 bf 8a 59 ce bc 0a 1e 6e 3e 70 89 8a bd
       -0.6256966 -0.02518918 0.23253646 -0.067644954
000100 c8 4b fe 3e 5c 24 f0 bd 9c 0c cf be 28 24 b3 3e
       0.49667192 -0.11725685 -0.40439308 0.34988523
000110 6b 1b bc 3d a2 86 09 3f c5 3d 2b bd f3 76 ef 3e
       0.09184917 0.5372106 -0.041806955 0.4677044
000120 7b 18 fd 3e 2f b3 a9 be de 69 08 3f de d8 2b 3f
       0.4943274 -0.3314452 0.5328654 0.6712779
000130 04 39 36 3d f2 c6 03 bf 6c 25 23 3f 94 d7 0e 3f
       0.044487968 -0.5147544 0.63728976 0.55797696
000140 57 ba ad 3e 56 d2 2b 3d 5e d8 1a 3f 8c e2 7c bd
       0.3393123 0.04194864 0.604864 -0.06173949
000150 eb e2 d9 be 8c 82 0c bf 1a 93 dd 3e 2b 71 25 3f
       -0.42555937 -0.548867 0.43276292 0.64625806
000160 29 9b 8c 3e 42 94 0d bf 8b 1a 31 3f 51 b3 03 3f
       0.27462128 -0.5530435 0.69181126 0.5144549
000170 26 0a f7 be 0b 85 f8 3e 1e 65 02 3f ba 2a 0c 3f
       -0.4824993 0.48539004 0.5093554 0.54752696
000180 8b 01 b8 be 70 41 ee 3e 82 64 11 3f a6 1c 88 3e
       -0.35938677 0.465343 0.5679399 0.26584357
000190 6f 9b 08 3f ee 50 4b bd ea bf e6 bd d5 cb 9a 3e
       0.5336217 -0.049637727 -0.112670735 0.30233636
0001a0 c9 3e 00 bf 43 99 b5 bc 4b 28 5b bd 54 3b ec bd
       -0.500958 -0.022167807 -0.053505223 -0.115347534
0001b0 b6 fe f8 3e b7 74 35 3f 64 78 2d 3f 94 bf 10 3f
       0.4863183 0.7088122 0.67761827 0.56542325
0001c0 b6 14 0e 3f 2e 8c 99 be 03 d8 dc bd 17 e0 e6 3e
       0.5550035 -0.2998976 -0.107833885 0.45092842
0001d0 94 7a f4 3e a2 c0 06 3f 21 b7 e8 3e 85 78 07 3e
       0.4774977 0.52637684 0.45452216 0.13229568
0001e0 0f 2d b0 be ad 08 a9 be cf 7c 0c 3f 7c 02 0d 3f
       -0.34409377 -0.33014432 0.5487794 0.55081916
0001f0 e9 13 d9 be a4 7e 8b 3e 47 ea 1a 3f 58 57 1e 3f
       -0.42398003 0.27245057 0.6051373 0.61852026

layer2.weight f4 [128, 128]
000000 fc d1 73 3c 28 a7 41 3d 4d 1e 0f 3e 06 5c 0f be
       0.014881607 0.047278553 0.13976403 -0.13999948
000010 2e 0b 6e be e3 24 1e bc 5e 19 70 bd 34 6f 2e 3e
       -0.23246452 -0.009652349 -0.058617942 0.17034608
000020 0a 6e f2 3d 42 00 ab be 9a 8a 1f 3e bf 7d 9b 3d
       0.118373945 -0.33398634 0.15580216 0.075923435
000030 38 40 02 be 2d b8 a6 bd 04 07 30 3c ee 3b 37 be
       -0.1271981 -0.081405975 0.01074386 -0.17893955
000040 01 ae 8c be 61 6c 1d 3e 7a 01 72 3e 1f c7 80 be
       -0.27476504 0.15373375 0.23633376 -0.25151917
000050 b9 c3 4e be 37 35 f7 bb 56 a0 43 3e 6a f2 45 3e
       -0.2019185 -0.0075441855 0.19104132 0.19330755
000060 20 34 a2 be 7f fe c0 bc e3 9a 92 3d d7 07 89 3b
       -0.31680393 -0.023558853 0.071584485 0.004181843
000070 28 bc 72 3b 27 4d 70 3e c6 dd 5a 3e fe 92 66 3e
       0.003703842 0.23466931 0.21373662 0.2251701
000080 a5 b6 72 bd eb 61 ac 3e 46 49 9a 3d 10 a1 c4 3c
       -0.059256215 0.33668455 0.07533507 0.024002582
000090 b2 2d 3b 3d 8a c6 0c 3e 2b 6c f4 bd b6 70 3d 3d
       0.045697875 0.13747612 -0.11934694 0.046250068
0000a0 fd 71 66 3e cb 22 52 be 6f 7f 0c 3d dc 1d 35 bd
       0.2250442 -0.20521085 0.034301218 -0.04421793
0000b0 4f bd 53 3d aa 8f bb bd 15 75 97 3d b3 95 c1 be
       0.05169421 -0.09158261 0.073953785 -0.37809524
0000c0 d7 21 8c bc 13 ac b5 3d 7d 1e a6 bd 0b 3e 68 be
       -0.01710598 0.08870711 -0.08111284 -0.22679918
0000d0 87 da 19 be c3 47 e5 3e b3 ee 51 3e a1 9e 92 3e
       -0.15024768 0.44781312 0.20501213 0.2863665
0000e0 6c a2 bd 3d 39 00 18 bf 8c 9e 5f be 93 16 5c 3d
       0.09259495 -0.5937534 -0.21837825 0.053732466
0000f0 ec f6 99 3e 33 c2 0c 3f db 99 e9 3c 93 f7 6b 3d
       0.300712 0.54983824 0.028515747 0.057609152
000100 cd 21 21 3c c8 a3 b3 3d 41 0a a9 3d dd 22 44 3d
       0.009834719 0.08771473 0.08253909 0.04788481
000110 e1 bb 5f be 98 97 53 3d 9a e7 a7 3e 88 69 73 be
       -0.21849014 0.051658243 0.32793885 -0.23770726
000120 d2 b1 30 3e 3b 85 fb 3d d0 c6 a2 3d 6d 5a 82 be
       0.17255333 0.12281271 0.07948077 -0.25459614
000130 d7 e6 3c be df 05 a7 bd bf bc 8c bd 43 4f 32 3c
       -0.18447433 -0.08155417 -0.06871938 0.010883155
000140 0f 25 5f 3e d1 06 85 bd fe 19 1b 3e 1e 6a fb 3c
       0.2179148 -0.06495441 0.15146634 0.030690249
000150 b5 4a dc bc 37 01 e0 bc 44 8a 20 3e 64 3a 1a 3d
       -0.026891092 -0.02734433 0.15677744 0.037653342
000160 c2 88 0d 3e d1 4a 0a 3d 52 36 4c be 92 a3 cf bc
       0.138217 0.033762757 -0.19942597 -0.025346551
000170 08 cd 4b be c5 52 93 3d 4b 8f 64 3e 7d 1f a3 3d
       -0.19902432 0.071935214 0.22320287 0.0796499
000180 48 11 2f bc 16 aa 37 3e 59 c9 b6 be 0e df ee be
       -0.0106852725 0.17935976 -0.3570049 -0.46654552
000190 90 3a 4e be 99 6b 53 3d a8 ee 9f bd 9a f0 d5 bc
       -0.20139527 0.051616285 -0.07809192 -0.026115704
0001a0 fc fb 3f be 8d a9 5a 3e 35 82 91 bd 6a 06 06 3f
       -0.18748468 0.21353741 -0.07104913 0.5235354
0001b0 d9 c2 f0 bc 62 df b8 be d7 9c d3 be f9 e6 ba 3d
       -0.029389786 -0.36107928 -0.41330597 0.09126086
0001c0 7e 39 43 3d fd d2 38 3e 06 45 92 bd 77 f3 8b 3d
       0.04766225 0.18049236 -0.071420714 0.068335466
0001d0 c6 c6 27 3e 23 ae 2f 3d e6 76 96 3d fc cb 08 3d
       0.1638442 0.04289068 0.07346897 0.03339766
0001e0 c6 fb c6 3e 52 d3 ce bd 6b 66 fd be e6 16 cf 3d
       0.38863963 -0.100989 -0.494922 0.101117894
0001f0 83 44 b1 3b 86 d4 b2 3d 79 0a 6a 3d 39 40 0f 3e
       0.0054097786 0.08731942 0.057138894 0.13989343
000200 7d 70 90 bd 6a ed 7e b9 37 d2 a1 3d d9 da 13 3e
       -0.070527054 -0.00024311771 0.079014234 0.14438953
000210 5b 2d a7 3b 6c c8 5d 3c 29 9a 95 bb 6d fb 2d 3e
       0.0051018423 0.013536554 -0.0045654965 0.16990443
000220 ac 51 b0 bd bc 51 02 bf a9 6c a2 3d ad bb 2b 3d
       -0.08609328 -0.50905967 0.079308815 0.04192703
000230 41 a6 1e be f5 72 a0 3d 3e 9e 35 bc 92 c9 88 be
       -0.15493108 0.07834426 -0.011085091 -0.26716286
000240 5d a4 b7 3d f8 fe 1b 3e 73 d0 b5 3e 01 e9 b3 be
       0.08966897 0.15233982 0.35510597 -0.35138705
000250 17 85 1f 3f 0c 6b 66 3e 74 14 1e 3e 89 2b 6d 3e
       0.62312454 0.22501773 0.1543749 0.23161139
000260 5c 65 a2 be 94 92 9e 3e 5d 77 55 3e a4 e4 d0 bd
       -0.31717956 0.30971205 0.20846315 -0.1019986
000270 c0 ec bb 3c 14 e5 dd 3e 5b b7 f4 3e 67 a6 a4 3e
       0.02294004 0.43338835 0.4779614 0.32158205
000280 00 b2 15 3d 15 de 3d 3f 12 f4 9e bd d9 5b 95 3d
       0.036546707 0.74166995 -0.077613965 0.07292909
000290 7d 4f 5f 3e a4 2d 9b 3e 2f 76 4f 3d 2a 5f 64 be
       0.21807666 0.3030826 0.050649818 -0.22301927
0002a0 37 b3 5f 3e c0 0d a5 bd ee 2e de bd fb 92 4a bc
       0.21845709 -0.08059263 -0.10848795 -0.012364144
0002b0 81 75 12 3e 74 ad 47 be 4c d4 7b 3e d5 c6 d2 bd
       0.14302637 -0.19499761 0.24592704 -0.102918305
0002c0 16 50 46 3e 7f 45 fe bb a4 30 9e bb 8c 16 ac bd
       0.19366488 -0.0077597494 -0.0048275758 -0.08402738
0002d0 6e 37 a6 3e f3 70 d9 3e 7d ad f2 3d de 16 c2 3e
       0.32464164 0.42468986 0.118494965 0.3790807
0002e0 91 9c b4 bd c2 67 0a be 2e 09 a8 bd d5 ed 37 3d
       -0.08818925 -0.13516143 -0.08204876 0.04490455
0002f0 49 ab be 3e 1e 76 44 3f 07 bd 8f bd d7 48 59 3e
       0.37240055 0.7674273 -0.07018476 0.21219192
000300 b9 e2 2a 3d 24 77 99 3e ee 21 48 3e 3e 96 2f 3d
       0.041720126 0.2997371 0.19544193 0.04286789
000310 7c 6d 29 3e 29 3c 3b 3d 06 f0 17 3f 8c ac 63 be
       0.16545671 0.04571167 0.5935062 -0.2223379
000320 fb 24 50 3d dc 91 8d 3e db 23 6b 3d 02 6a 19 bc
       0.050816517 0.27650344 0.05740724 -0.009363653
000330 6b c4 26 bd 4a 50 b1 3d 79 66 04 be 46 3c 5d 3d
       -0.040714663 0.08657892 -0.12929715 0.05401256
000340 24 a3 c7 3d f1 9b 42 3d 40 8e 79 3d 28 f8 29 bc
       0.097479135 0.047512 0.060926676 -0.0103741065
000350 b8 13 e0 3c 39 bc 5b 3e c5 ba 1f 3e 75 0b 30 3d
       0.027353153 0.2145852 0.1559859 0.042979676
000360 30 cc 1b 3e db af 42 3e 7b fd 0d be 73 35 c7 bc
       0.1521461 0.19012396 -0.13866226 -0.024317479
000370 84 b7 91 3d 8e 63 1f bd 8f cc b3 3d d3 d0 4e 3e
       0.07115081 -0.038913302 0.08779251 0.20196848
000380 98 bb ea bc 2b ff 3b 3e 1e 76 b9 bd 9e ce 25 bf
       -0.028653905 0.18359058 -0.09055732 -0.647684
000390 0d ac a1 be 96 5a e0 3e b3 1d 07 3e d3 8b 9d bd
       -0.31576577 0.43819112 0.13194923 -0.07692685
0003a0 b6 16 d3 3d 58 7a 9b 3e 6a 80 90 3e 4c a0 cf 3e
       0.10307066 0.30366778 0.28222972 0.40551984
0003b0 bf e6 d1 3c cd e1 b1 bd 60 40 44 be 4a d5 5a 3d
       0.025622724 -0.08685646 -0.19165182 0.053426065
0003c0 d5 30 5b 3d b8 d2 88 3e d4 59 bc 3c 42 81 0f 3e
       0.053513367 0.26723266 0.022992052 0.14014152
0003d0 92 7d 57 3e 0c 25 00 3d 20 9e 24 bc 59 e3 32 3e
       0.21043995 0.03128533 -0.010047466 0.17469539
0003e0 1d fa 0a 3f 07 95 26 be f9 93 94 be 9e be 12 3e
       0.5428789 -0.16267787 -0.29019144 0.14330527
0003f0 c9 ae 96 3e 56 29 a9 3d 3a 67 b4 3d c8 6c 0a 3d
       0.29430225 0.08259837 0.088087514 0.033795148

layer2.bias f4 [128]
000000 4b 38 86 3d 7d 9e ea bb 09 dc 0d 3d 49 2f 2c 3e
       0.06553706 -0.0071600066 0.03463367 0.16814913
000010 14 7e b2 bc 7d 2a a7 3c a8 48 38 3e 97 d7 85 bd
       -0.021788634 0.020406002 0.17996466 -0.06535261
000020 af 38 ff 3d 3a f8 9a 3d d0 04 95 bb 95 45 9e 3b
       0.124619834 0.07566877 -0.004547693 0.004830072
000030 77 0a 81 bd 9a 2a a6 3d c9 0c 24 be 31 02 8d 3e
       -0.06300824 0.08113594 -0.16020502 0.27540734
000040 4c 77 fd 3d 02 12 0f 3e c9 91 2a 3d 57 0d 35 be
       0.1237627 0.13971713 0.041642938 -0.1768087
000050 5c 60 4d bb d9 bb 88 3e 77 2c e8 3c fd 47 36 3e
       -0.0031337952 0.26705816 0.028341515 0.17800899
000060 8e bd 07 bd 6d 19 6a 3e 67 37 70 3c 3f e2 a7 3c
       -0.033139758 0.22861262 0.014661646 0.020493625
000070 4c f2 d4 3d 30 b2 93 3e 32 f8 28 bd d5 37 3c 3c
       0.10397777 0.28846884 -0.041252322 0.011487921
000080 29 b1 9d 3e 37 f5 77 3c f4 78 4f 3d ff 11 d8 3c
       0.30799225 0.015134147 0.05065246 0.026375769
000090 00 ba ac 3d 30 ff 76 3e 30 45 e8 bc 85 48 45 3e
       0.08433914 0.24120784 -0.028353304 0.19265945
0000a0 0c bf 0e 3e bf b6 23 3e df 03 c6 3d 91 43 98 3d
       0.13940066 0.15987681 0.09668707 0.07434762
0000b0 1f 20 b7 bd 1c d6 f5 3c e1 e2 9e 3e 36 bb 05 3e
       -0.089416735 0.030009322 0.3103247 0.13059697
0000c0 14 34 1b bd 12 c7 65 3e 69 9e 94 3e 9d fa 3c 3e
       -0.037891462 0.2243922 0.29027107 0.18454976
0000d0 af 2e a4 bd 25 45 b6 3d da ab 8e 3e dc a1 66 3e
       -0.08016717 0.08899907 0.27865487 0.22522682
0000e0 8b e4 29 3e 7d d3 15 bd 60 0c 16 bd f6 95 c6 3d
       0.16591088 -0.036578644 -0.036632895 0.096965715
0000f0 d1 f4 78 3e b2 5a 19 3e c1 57 51 39 06 60 82 bc
       0.2431214 0.14976004 0.00019964484 -0.015914928
000100 bd 39 e6 3c 4a 2b 0f bd d8 50 b7 3d 1a 12 20 bd
       0.028103704 -0.034953393 0.089509666 -0.039079763
000110 78 36 8e 3d ea 4f 85 3d f5 93 96 3d ee a3 83 bd
       0.06943983 0.06509383 0.07352439 -0.064277515
000120 05 35 78 3d f6 db af bc 8b 99 2f 3e 89 67 ca bd
       0.06059744 -0.02146719 0.17148416 -0.09883029
000130 db a7 6c 3d c5 6d a4 bd 55 79 ca bd 70 30 7b 3e
       0.057777267 -0.080287494 -0.098864235 0.24530196
000140 7e 99 2d 3d 20 21 0a 3e 88 1a 11 3e 36 97 32 3d
       0.04238271 0.13489199 0.14170277 0.043601237
000150 48 62 6e 3e 07 58 3b 3e 90 21 a5 3d 95 70 82 3e
       0.23279679 0.18295299 0.08063042 0.25476518
000160 ac 55 ff bc 1f d6 3d 3d af 01 85 3d 5c 50 57 3e
       -0.031168781 0.04634678 0.06494462 0.21026748
000170 ea 3a 2d bd 7c 7b 71 3e 64 34 34 3c db 26 2b 3d
       -0.042292513 0.23582262 0.010998819 0.041785102
000180 80 86 6a 3e e1 7d cc 3d 5f 01 9a 3c 98 7b d1 bc
       0.2290287 0.09984947 0.018799482 -0.02557163
000190 69 62 18 3d 06 ce 29 3d ae 4a 0a bd ff c2 58 3e
       0.037203226 0.041456245 -0.033762626 0.21168135
0001a0 e6 c3 ea 3c ac 07 95 3d c0 dc d7 bc eb 2f 03 3e
       0.028657865 0.07276854 -0.026350379 0.12811248
0001b0 c3 02 90 bb 05 ef 4f 3d e4 dd 4f 3e 3c 9d 71 3d
       -0.0043948605 0.050765056 0.20299488 0.05898784
0001c0 00 9e e0 bc d6 22 b1 3d f0 1e 61 3e 89 03 02 be
       -0.02741909 0.086492226 0.21984458 -0.12696661
0001d0 d3 97 f8 3c 38 a6 5e 3d eb e0 47 3e d9 99 8f 3e
       0.030345833 0.054357737 0.19519393 0.28047064
0001e0 eb 89 c3 bc 2a 4d 82 3e 32 5c 34 bd cd 4b 97 3d
       -0.023869475 0.25449497 -0.044033237 0.07387505
0001f0 6f 3d 45 3e bf a9 b6 3c 4e c1 24 3e 44 6b 9e bd
       0.19261716 0.022297738 0.16089365 -0.07735303

layer3.weight f4 [2, 128]
000000 ba 54 58 be 8e a7 be be 77 c7 2f bd 74 44 bd 3e
       -0.2112607 -0.3723721 -0.042914834 0.36966288
000010 ab 79 1d bf 38 62 94 be 23 ef d6 3e ba 83 d8 be
       -0.61513776 -0.28981185 0.41979322 -0.42288
000020 5d dd db 3e cc cd e2 3e 98 7e c9 3c ea b9 e9 be
       0.42942324 0.44297636 0.024596497 -0.45649654
000030 b9 47 02 3d fd 75 70 3e 31 e5 d4 be b5 64 c0 3e
       0.03180668 0.23482509 -0.4158111 0.37576833
000040 ce 2c b1 3e 1e f0 d1 3e 10 a6 bc 3e de 7c b3 be
       0.34604496 0.41003507 0.36845446 -0.35056204
000050 99 18 8a bd 84 f5 aa 3e a9 84 44 bf e7 91 b2 3e
       -0.06742973 0.3339044 -0.76764923 0.3487694
000060 09 17 41 3e 0f cd b7 3e c6 e1 dd bb 8d 4a d3 3e
       0.18856443 0.35898635 -0.006771299 0.41267815
000070 63 a3 cc 3e ab be ac 3e fb 94 39 3d 68 1b 2a bf
       0.39968404 0.33739218 0.045308094 -0.6644807
000080 31 f3 90 3e e4 34 d3 3c 58 db 83 bd 17 e1 55 bc
       0.2831054 0.025782056 -0.06438321 -0.013054154
000090 92 11 0b be f2 3c a0 3e ea 6d 16 bf 98 eb 9f 3e
       -0.13580921 0.31296498 -0.58761466 0.3123443
0000a0 d6 5b d1 3e b5 32 e1 3e c1 b7 1e 3d 98 57 9a 3e
       0.40890378 0.43984 0.03874946 0.30144954
0000b0 25 2a 86 bd 5e 06 fa 3d 8f a8 a5 3e 67 ca b1 3e
       -0.06551007 0.12208246 0.32355163 0.34724733
0000c0 5e 1a 51 3d d1 4a 02 3e e3 92 a6 3e 00 05 c8 3e
       0.051050536 0.12723853 0.3253394 0.39066315
0000d0 28 40 26 3d bf 46 b2 be 77 f4 ae 3e 52 12 a9 3e
       0.040588528 -0.348196 0.34170887 0.3302179
0000e0 a6 d7 e1 3e e5 37 6d 3d 2b 85 99 bd 77 08 bb 3e
       0.4410984 0.057914633 -0.07496103 0.36529896
0000f0 00 8d 2f 3e dc a8 94 be 12 0c 5e bd 6c fc b4 3c
       0.17143631 -0.2903508 -0.05421073 0.02209302
000100 72 7c fd bb c6 71 f7 be d0 f5 ed 3e 88 b3 26 3d
       -0.0077357823 -0.4832899 0.46476603 0.040698558
000110 66 a1 dd 3e bb b3 39 bc 00 d7 a4 3e d1 98 a7 bd
       0.432872 -0.011334355 0.32195282 -0.08183444
000120 9b c6 62 bd f4 c7 73 bf a3 81 ef 3e 76 8a 04 bf
       -0.055365186 -0.9522698 0.46778592 -0.51773775
000130 4b 58 43 bf d2 4d 1d 3e 8e 7a 5d bf 5a 10 88 3e
       -0.763066 0.15361717 -0.8651513 0.26574975
000140 a6 14 81 3e 6e 6b ec 3e 0e 85 34 bf ad 30 89 bd
       0.25211066 0.46175712 -0.70515525 -0.06698737
000150 da b5 91 3e 25 e4 8c 3e ce 1b 01 be 1e 3e db 3e
       0.28459054 0.2751781 -0.12608263 0.4282083
000160 1d e7 c4 3d 85 02 20 bd 9f 71 8e be ea 00 cf 3e
       0.09614394 -0.039064903 -0.2782106 0.40430385
000170 8a 23 db ba 76 2b 7d 3e 95 70 dd be a5 33 17 bf
       -0.0016718965 0.2472361 -0.43249956 -0.5906318
000180 0e d3 b9 3e e1 8f b8 3e a5 d0 db 3d 3d ce 3f 3d
       0.36293834 0.3604727 0.10733155 0.046827544
000190 83 ec 8e bd 1d 04 cc be 12 5e a6 bc 97 64 55 3e
       -0.06978705 -0.39846888 -0.020308528 0.20839153
0001a0 16 71 d7 3e ee 5f 60 be 75 4e d1 3a 4e 86 cf 3e
       0.42078465 -0.21911594 0.0015968817 0.40532154
0001b0 3a 78 7d be 3c f3 3d be f2 2f d1 3e 81 9c af be
       -0.24752894 -0.18549818 0.40856892 -0.3429909
0001c0 d3 40 92 3d 76 8d c5 be 34 6c b1 3e 14 44 e6 bd
       0.071412705 -0.3858449 0.34652865 -0.112434536
0001d0 95 34 23 bf 84 8a 79 bd 16 bb b6 3e 02 dd 8e 3e
       -0.6375211 -0.060923114 0.3568961 0.2790299
0001e0 1c f4 b6 bc 16 f5 af 3e 53 08 f5 3b d9 3d cb 3e
       -0.022333197 0.34366673 0.007477799 0.39695624
0001f0 ea 60 a0 3e 80 31 d2 be ea 9f a8 3e 11 a0 0c bf
       0.3132394 -0.4105339 0.32934505 -0.5493174
000200 54 c7 11 bf b4 28 91 be 8d 8d 04 bf b4 44 d7 3e
       -0.56944776 -0.28351367 -0.5177849 0.42044604
000210 b4 f5 26 bf 71 29 7f be e4 72 75 3e 9a 03 4e bf
       -0.65218663 -0.24918152 0.23969609 -0.80474246
000220 3e 18 cd 3e 8a ac ea 3e 8c ff 8d bd 2f 0e 07 bf
       0.40057558 0.45834762 -0.06933507 -0.5275602
000230 63 81 9a bd c5 e3 b9 3e 1f 75 28 bf ba c0 41 3e
       -0.0754421 0.36306587 -0.6580371 0.18921176
000240 a8 af 54 3e 91 c9 a1 3e 40 59 d5 3e 3a 50 17 bf
       0.20770133 0.31599095 0.41669655 -0.5910679
000250 20 bc 3f 3c dd a6 ad 3e ff c8 15 3f 8f 2a a2 3e
       0.011702567 0.3391637 0.5850982 0.31673095
000260 f7 86 ae be 40 0c 91 3e e4 75 39 bd ee 4f ce 3e
       -0.34087345 0.28329659 -0.045278445 0.40295357
000270 78 20 b5 3e ec 2e 8c 3e d5 aa 9a 3d b6 2d 0a bf
       0.35376334 0.2737955 0.07552115 -0.53976
000280 ea 27 d7 3e 62 24 a1 3b 96 84 8c 3c 38 de b0 bc
       0.4202264 0.0049176672 0.017153066 -0.021590337
000290 8a 0c 2d be 98 3c 96 3e d1 14 7e 3e fe 17 a4 3e
       -0.16899315 0.29343104 0.24812628 0.32049555
0002a0 32 10 83 3e 92 5c 81 3e 81 b4 8c be 7e 54 b5 3e
       0.25598294 0.25265938 -0.27481464 0.35416025
0002b0 ae d8 f4 3d 78 27 04 bf dd 10 83 3e 20 b9 b9 3e
       0.11955391 -0.51622725 0.25598803 0.36274052
0002c0 6e d6 1d 3d f6 d6 b4 3e 33 28 c2 3e 11 e7 c8 3e
       0.038534574 0.35320252 0.37921295 0.3923879
0002d0 d2 37 a1 bb 8b 1d 30 bf 3e 0b 9b 3e cf 00 8d 3e
       -0.0049199844 -0.6879508 0.30282015 0.2753968
0002e0 47 83 bd 3e 16 a2 84 bc 20 fc 1d bf dc f1 a9 3e
       0.3701422 -0.01619057 -0.6171284 0.33192337
0002f0 f6 81 c3 3e 72 dc ae 3e 61 4d 89 bd 45 85 36 3d
       0.3818509 0.3415256 -0.06704212 0.04456069
000300 ac d6 98 bd c4 0c 11 bf 5c 8b d3 3e 64 e9 12 bc
       -0.074628204 -0.56660104 0.4131726 -0.0089667775
000310 83 19 b2 3e 4e cf 5d bd 8a ea a1 3e f6 12 a2 3c
       0.3478509 -0.05415278 0.31624252 0.019784432
000320 8a 8c 96 3c f8 5f 27 be c8 95 95 3e ff 65 63 bf
       0.018377561 -0.16345203 0.29215837 -0.8882751
000330 a2 c3 1f bf 16 ae 28 be 77 79 d2 3d 63 e9 e7 3e
       -0.62407887 -0.16472659 0.10277074 0.45295247
000340 15 2c c5 3e 0e 8e 96 3e b1 1a 16 bf e7 9f a3 bd
       0.38510194 0.29405254 -0.5863448 -0.07989483
000350 a0 1d bf 3e 61 20 c4 3e a8 f6 7d be 61 fa 75 3e
       0.3732729 0.38305953 -0.24801123 0.24021293
000360 bb 45 fa be 90 43 67 3d c0 de 86 3e 78 3a aa 3e
       -0.48881325 0.056460917 0.2634182 0.33247733
000370 4d eb 51 bd 4e 9b a8 3e f1 da df be ad 1a 10 bf
       -0.05124979 0.32930988 -0.43721727 -0.56290704
000380 fe 49 a3 3e 25 35 12 3e e0 bc 20 bf 34 ee 8d bd
       0.3189239 0.14278086 -0.627882 -0.06930199
000390 0d 23 2b bd b5 8a 9d be ce 0e 08 bd 7d be e3 3e
       -0.041781474 -0.30769888 -0.033217244 0.4448127
0003a0 26 9c a9 3e ba 30 7c 3e 6e 3a 54 3d 24 4c bf 3e
       0.33126944 0.24627963 0.051813535 0.37362778
0003b0 f1 7e 36 bf e2 5a 02 3f c0 e9 8b 3e 59 bf 8e be
       -0.7128745 0.50919926 0.27326775 -0.27880362
0003c0 91 ba 81 bd 1c 36 81 be 92 34 89 3e 1c c1 00 bf
       -0.06334413 -0.25236595 0.2679792 -0.5029466
0003d0 c7 47 cf be 2f e9 57 3d 40 da 43 3e d3 49 c4 3e
       -0.4048445 0.052712616 0.19126225 0.38337573
0003e0 dc 89 58 3c ef 43 6a 3e 5d 25 8b bd a1 7e de 3e
       0.013216462 0.22877477 -0.06794236 0.43455985
0003f0 4a 84 c2 3e f8 ed 1e 3e 50 97 92 3e e0 46 d7 be
       0.37991554 0.15520465 0.28631067 -0.4204626

layer3.bias f4 [2]
000000 53 14 79 3d bb b7 48 bc
       0.0608104 -0.012250836
