dqn/main_dqn_model.pt (torch, 72655 bytes, 6 tensors)

weight f4 [128, 4]
0.18465863 0.05166098 0.23918852 0.12461498 0.3474559 0.29003516 -0.4733821 -0.32898253
-0.30586386 -0.14041138 -0.5968187 -0.069421336 0.095905274 0.061037663 0.6572719 0.14913008
-0.105349496 -0.17126605 -0.89184666 -0.3217485 -0.0198763 -0.020289015 -0.34041986 -0.10739199
0.22844413 -0.16942814 -0.4136106 -0.03208629 -0.15956795 -0.1970123 -0.6511213 -0.11989429
0.24963716 0.15064923 -0.50658435 0.01848626 -0.015676145 -0.032284874 -0.5882681 -0.10460296
-0.07716199 0.24720469 -0.43873647 -0.395119 -0.64071906 -0.12753883 0.72172993 0.10813412
-0.2977658 0.15258163 0.670939 -0.08767191 0.03498529 0.12818433 0.41854504 0.16433765
-0.30746162 -0.12659131 -0.4588008 -0.08203119 -0.075854115 -0.300301 0.81409097 0.21123217
-0.33096895 -0.14991966 1.0937141 0.31326225 0.045528427 0.0029086182 -0.10044591 0.111939095
-0.1525444 0.06737904 0.6799975 -0.093742356 -0.23736875 -0.059011146 0.06476987 0.03697954
-0.33873564 0.09763165 0.6386431 -0.097570434 -1.0466745 -0.32903638 1.3061528 0.2968305
0.046729438 0.0056259017 0.09707875 0.1024967 0.17983189 -0.087687396 -0.91243714 -0.32638127
0.5108483 0.2736782 -0.01727253 0.09519343 0.032610975 0.019917041 -0.38036078 -0.07833058
-0.8062591 -0.566061 0.39390185 -0.10784688 -0.11623979 0.007522687 1.2099832 0.29882735
0.1714444 0.11379576 -0.08655705 -0.041406013 -0.07885689 -0.033093262 0.19148205 -0.08439687
-0.13427208 -0.20917487 -0.42048648 -0.1193399 -0.16858794 -0.21737607 -0.3054779 -0.11361867
-0.63773566 -0.10556328 0.87995946 0.16836672 0.36961615 -0.05127641 -0.4176568 -0.020408971
-0.11865991 0.016599765 1.1229948 0.24343035 -0.07410428 -0.058500007 -0.4732501 0.0019135316
-0.13625018 -0.094414525 0.060456358 -0.005249243 -0.4233407 -0.13469552 -0.16293916 -0.07499169
0.23446855 -0.22194433 -0.0643488 -0.2663161 -0.14273784 0.078805804 1.3483131 0.3970291
-0.92580295 -0.12189433 1.1709499 0.18438175 -0.25855398 -0.06784459 -0.45449647 -0.026674487
-0.23407185 -0.2073544 -0.47957107 -0.13839096 -0.0041917344 -0.019744003 -0.094312415 -0.06292893
-0.2243023 -0.116385035 0.9286329 0.15856986 -0.077789746 0.10431191 -0.16256371 -0.035278868
-0.51932335 -0.4580718 -1.0655698 -0.34424278 0.12006445 0.07419817 0.0728134 0.16873142
-0.06305135 0.1100415 -0.28066432 -0.035602927 0.0065720854 0.01521533 0.15507019 0.099979654
0.19990733 0.0093465885 -0.34791237 -0.07503918 0.046669275 0.079521544 0.37996444 0.102152534
0.49481723 -0.007565912 -0.639845 -0.28670692 -0.31457624 -0.1441931 0.2389921 0.20399193
0.12579596 -0.18364923 -0.25021976 -0.11653403 -0.08275026 0.10215981 -0.11455142 0.026849255
-0.47541928 -0.15539555 -0.35683155 -0.10389346 -0.35147715 -0.3530331 -0.39235827 0.10473363
0.047937654 -0.015644085 -0.46231169 0.0029261103 0.27414128 -0.0051962156 -0.39601377 -0.09487823
-0.07527005 0.0020439085 -0.28844616 -0.10622811 -0.5347423 -0.4831174 -0.48036104 -0.36032438
0.25224453 0.1431643 -0.10964198 0.1234946 -0.47916552 -0.11332272 -0.11388095 -0.17306267
00000000: 2717 3d3e 779a 533d d6ed 743e 2336 ff3d
00000010: bde5 b13e 7d7f 943e 235f f2be 6670 a8be
00000020: 309a 9cbe 00c8 0fbe 1cc9 18bf c62c 8ebd
00000030: fc69 c43d a102 7a3d f942 283f 8eb5 183e
00000040: 7ac1 d7bd 5e60 2fbe 1050 64bf 38bc a4be
00000050: 9fd3 a2bc 2635 a6bc 834b aebe 55f0 dbbd
00000060: 42ed 693e 927e 2dbe c5c4 d3be ea6c 03bd
00000070: c865 23be 98bd 49be e3af 26bf 238b f5bd
00000080: e2a0 7f3e cb43 1a3e 83af 01bf 7f70 973c
00000090: 426b 80bc 253d 04bd bd98 16bf 143a d6bd
000000a0: 1b07 9ebd 3a23 7d3e 11a2 e0be 0a4d cabe
000000b0: 2a06 24bf 8a99 02be 4bc3 383f 6c75 dd3d
000000c0: c274 98be 5c3e 1c3e a9c2 2b3f 558d b3bd
000000d0: bc4c 0f3d c142 033e 894b d63e 2148 283e
000000e0: 9c6b 9dbe 27a1 01be f0e7 eabe f8ff a7bd
000000f0: 6759 9bbd 0dc1 99be 4468 503f 3f4d 583e
00000100: c374 a9be 8a84 19be d3fe 8b3f e963 a03e
00000110: 047c 3a3d 849e 3e3b 96b6 cdbd 5340 e53d
00000120: 9934 1cbe 06fe 893d 5114 2e3f fefb bfbd
00000130: cb10 73be acb5 71bd 11a6 843d dc77 173d
00000140: c26e adbe 1af3 c73d 1d7e 233f 02d3 c7bd
00000150: 6ef9 85bf 7577 a8be 0430 a73f 2bfa 973e
00000160: 5e67 3f3d 7c59 b83b 39d1 c63d cae9 d13d
00000170: da25 383e 7395 b3bd 7b95 69bf 721b a7be
00000180: f4c6 023f 8d1f 8c3e 1f7f 8dbc c6f4 c23d
00000190: 1693 053d 1029 a33c a6be c2be c86b a0bd
000001a0: ff66 4ebf 60e9 10bf 81ad c93e d3de dcbd
000001b0: 210f eebd df80 f63b bbe0 9a3f e6ff 983e
000001c0: 1f8f 2f3e c00d e93d d344 b1bd 5a99 29bd
000001d0: b97f a1bd cd8c 07bd df13 443e 44d8 acbd
000001e0: 9f7e 09be f031 56be 014a d7be 7a68 f4bd
000001f0: 51a2 2cbe d597 5ebe 9967 9cbe e8b0 e8bd
00000200: a542 23bf 9031 d8bd 0645 613f 5368 2c3e
00000210: 543e bd3e 3707 52bd 1dd7 d5be b730 a7bc
00000220: f803 f3bd 3bfc 873c 4bbe 8f3f ce45 793e
00000230: fcc3 97bd b49d 6fbd d64d f2be 77cf fa3a
00000240: 2b85 0bbe 675c c1bd 16a1 773d d801 acbb
00000250: 1dc0 d8be 9fed 09be 86d9 26be 3e95 99bd
00000260: 8618 703e 6045 63be 4ec9 83bd 955a 88be
00000270: de29 12be f064 a13d 8695 ac3f 6647 cb3e
00000280: 6c01 6dbf bca3 f9bd b0e1 953f 92ce 3c3e
00000290: 3061 84be 1bf2 8abd c3b3 e8be 7484 dabc
000002a0: 88b0 6fbe b654 54be 578a f5be 5cb6 0dbe
000002b0: d15a 89bb 2dbe a1bc de26 c1bd e2e0 80bd
000002c0: 81af 65be 475b eebd e3ba 6d3f 2360 223e
000002d0: 3b50 9fbd 7ca1 d53d 1a77 26be 9380 10bd
000002e0: 60f2 04bf 6388 eabe 9764 88bf 9740 b0be
000002f0: 5ae4 f53d 36f5 973d 311f 953d eec7 2c3e
00000300: 1121 81bd 705d e13d 3cb3 8fbe 60d4 11bd
00000310: a65a d73b b849 793c b8ca 1e3e 22c2 cc3d
00000320: 82b4 4c3e 6f22 193c 9221 b2be 24ae 99bd
00000330: 4828 3f3d 31dc a23d b38a c23e 5935 d13d
00000340: af58 fd3e 78eb f7bb e2cc 23bf 40cb 92be
00000350: 2310 a1be 5ba7 13be 58ba 743e 43e3 503e
00000360: a8d0 003e 8b0e 3cbe ce1c 80be 65a9 eebd
00000370: f878 a9bd 2a39 d13d ef99 eabd f8f2 db3c
00000380: 286a f3be 0320 1fbe a0b2 b6be 18c6 d4bd
00000390: d0f4 b3be c1c0 b4be 2fe3 c8be 967e d63d
000003a0: 465a 443d 0628 80bc 1eb4 ecbe fcc3 3f3b
000003b0: 3f5c 8c3e 0445 aabb 51c2 cabe 844f c2bd
000003c0: 2f27 9abd 18f3 053b 37af 93be 208e d9bd
000003d0: dfe4 08bf 2a5b f7be e2f1 f5be 707c b8be
000003e0: 3226 813e aa99 123e f98b e0bd bdea fc3d
000003f0: 2f55 f5be be15 e8bd 6a3a e9bd 5737 31be

bias f4 [128]
0.27236262 -0.18523788 0.17631382 0.396849 -0.37549335 0.24555022 0.2386882 0.18381579
0.26244617 0.2687687 0.038936127 -0.24896668 0.18677612 0.35401246 0.15980971 0.110702224
0.29637277 0.26575658 0.1011025 0.24607809 0.20817573 0.07235738 0.27520588 0.20513566
0.018466078 0.25315717 -0.18108799 -0.27261686 0.24527663 0.24956085 0.16224632 0.23442884
-0.31987664 0.26336294 -0.2658128 0.20220344 0.24603306 0.21610211 0.2877803 -0.30650747
-0.024342818 0.1970935 0.18287423 0.23725607 -0.25416547 0.19173957 0.0148683535 0.3117617
0.2215737 0.27463067 0.24252927 0.2739586 -0.29486075 0.124070056 0.2441992 0.24226972
0.21442169 0.053041637 0.26605776 0.27630273 0.25409696 0.012030909 0.28777516 0.18086028
0.27725476 0.16808239 -0.34779313 -0.24793434 0.25296152 0.2622859 0.15107022 0.16112547
0.18923229 0.26629016 -0.23938753 0.025652954 0.13448152 -0.27608714 0.21952528 0.1899539
0.19259161 0.002403127 -0.29369494 0.24811637 0.23461945 0.3527887 0.18037066 0.29143232
0.18768194 -0.14733927 -0.041791756 0.27032736 0.24307601 0.0018211158 0.24730988 -0.29032305
-0.3299655 0.28098467 -0.26010293 0.32346424 0.33636206 0.16413729 0.1781758 -0.0015879207
0.26994234 0.1688389 0.02380241 0.08094423 0.27123287 -0.28102532 0.17780003 0.27602407
-0.0011165473 -0.14246857 0.31276667 -0.02873944 0.062143415 -0.33168215 0.2318751 0.043409523
0.22410461 0.17463088 0.23607 0.13557884 0.23429865 0.26934695 0.26536334 -0.11746605
00000000: 1d73 8b3e 00af 3dbe 9c8b 343e cb2f cb3e
00000010: aa40 c0be 8471 7b3e ae6a 743e 353a 3c3e
00000020: 585f 863e 0d9c 893e 7d7b 1f3d 1ff1 7ebe
00000030: 3d42 3f3e 1f41 b53e 28a5 233e d9b7 e23d
00000040: 2cbe 973e 3f11 883e d40e cf3d e5fb 7b3e
00000050: 052c 553e 1b30 943d c9e7 8c3e 150f 523e
00000060: 2c46 973c d19d 813e 216f 39be 7094 8bbe
00000070: cc29 7b3e e18c 7f3e e623 263e 1d0e 703e
00000080: dfc6 a3be 82d7 863e 9e18 88be 6b0e 4f3e
00000090: 17f0 7b3e df49 5d3e f157 933e 8cee 9cbe
000000a0: 976a c7bc e1d2 493e 6243 3b3e 41f3 723e
000000b0: fa21 82be 6157 443e 659a 733c 3b9f 9f3e
000000c0: 37e4 623e 649c 8c3e 9859 783e 4d44 8c3e
000000d0: fdf7 96be 7118 fe3d 5b0f 7a3e 8e15 783e
000000e0: 5c91 5b3e 3042 593d b938 883e 8d77 8d3e
000000f0: ff18 823e 4a1d 453c 4457 933e 7033 393e
00000100: 56f4 8d3e ca1d 2c3e f111 b2be 80e2 7dbe
00000110: 2c84 813e 564a 863e 27b2 1a3e 13fe 243e
00000120: 1cc6 413e 2f57 883e 0122 75be 2526 d23c
00000130: 86b5 093e 4b5b 8dbe 3ccb 603e 4683 423e
00000140: bc36 453e c87d 1d3b 2f5f 96be 3812 7e3e
00000150: 1540 703e b8a0 b43e 16b3 383e 9e36 953e
00000160: b22f 403e 1be0 16be d52d 2bbd 5968 8a3e
00000170: ebe8 783e 82b2 ee3a cd3e 7d3e 39a5 94be
00000180: 3df1 a8be 39dd 8f3e 362c 85be 1b9d a53e
00000190: a637 ac3e 9b13 283e b873 363e c721 d0ba
000001a0: e235 8a3e 1be4 2c3e 46fd c23c 17c6 a53d
000001b0: 09df 8a3e 8de2 8fbe 3611 363e 0753 8d3e
000001c0: 1c59 92ba 48e3 11be f422 a03e f96e ebbc
000001d0: 188a 7e3d 3ed2 a9be ab70 6d3e 2fce 313d
000001e0: ae7b 653e 70d2 323e 56bc 713e 2ed5 0a3e
000001f0: fceb 6f3e d8e7 893e b4dd 873e 0a92 f0bd

weight f4 [128, 128]
0.000707489 0.1503582 -0.059492156 -0.021191742 -0.0067880326 -0.04085037 0.0907311 -0.043513425
-0.05697097 0.091830075 -0.06887174 -0.015437738 -0.036697194 -0.028604267 0.07883689 0.13297893
0.05879106 -0.03347852 -0.025650207 -0.057478357 0.103061356 0.09195347 0.0061023887 0.11467134
0.00038799617 0.13250431 -0.015280269 0.010291097 -0.060939122 0.03899095 -0.03407358 0.021908287
-0.025140023 -0.04726692 0.00014130992 -0.009248294 -0.044383194 -0.028441714 0.057990782 -0.0060828067
0.10631382 -0.00062716065 -0.038496643 0.09416826 0.1276873 0.047449034 -0.040394865 -0.0041980436
0.017022716 -0.08660015 -0.09300395 -0.18931809 -0.03063208 0.0050498433 0.037777446 -0.06270026
0.07210147 0.009309783 -0.034243226 0.06809475 0.035918444 -0.2324772 -0.12637271 0.00010833406
-0.14618449 -0.072230116 -0.17836194 -0.06445565 0.044563934 -0.13113618 0.10500761 0.048667133
-0.08280762 -0.095582366 -0.015875226 0.1433508 0.08318822 0.07780469 0.06574786 -0.016019799
-0.11234688 0.0145175 -0.016783245 -0.11141456 -0.08157204 0.018377725 -0.061037924 0.08219292
-0.038192693 -0.12561762 0.07205265 -0.025263065 -0.09306516 0.03116948 -0.035523113 -0.14805824
-0.036038045 -0.1357207 0.040739 -0.055563454 -0.023542259 0.10685861 -0.11723838 -0.0817643
0.047253013 -0.048783064 -0.058140635 0.08567355 0.044428155 0.15388565 -0.12298792 -0.073683254
-0.043238137 -0.122657314 0.2502747 0.06335996 0.022270942 0.005000942 -0.12133192 -0.08662625
0.0459952 0.037601758 0.015265888 -0.10563231 0.00266576 -0.0026821753 -0.001030705 -0.10734236
0.08817666 0.013489819 0.14080036 -0.089938454 -0.44316193 0.36109 0.034981202 0.306246
0.38196802 0.25109774 -0.07496039 -0.48989275 0.16231316 0.084817246 0.15684718 0.015435297
0.159785 0.2585564 0.5482814 0.1590025 0.28260848 0.09320482 0.19638784 -0.11356872
-0.3472394 0.4056058 -0.3828884 -0.69146866 0.32694873 0.22991525 0.09067646 0.3378354
-0.3464471 0.27102822 -0.7616511 0.08659671 0.21475537 0.24392882 0.33046448 -0.4677459
0.03936296 0.31498513 0.058070917 0.22197817 -0.63170147 0.26829845 -0.11178653 -0.028976394
0.332562 0.1410918 0.32252708 0.1453131 -0.10021357 0.103996225 0.058865376 0.046686906
0.25091365 -0.14568913 0.16049553 0.2451316 0.2544912 -0.33749613 0.16242187 0.14508586
0.11138873 0.07667434 -0.17565274 -0.13448149 -0.068183556 0.2173203 0.24322034 0.1770461
0.27087975 -0.13026497 -0.36627385 -0.43207106 0.22547258 -0.7661821 0.19670151 -0.23367664
0.09330634 -0.6913722 -0.5616217 0.43773508 0.38131222 0.15147983 0.3593053 0.26672283
0.18107827 -0.15978372 0.016134406 0.15559278 0.18322925 -0.24019891 0.24627937 -0.29439312
-0.492916 0.28492513 -0.73411083 0.14285319 -0.04174466 0.22120033 0.2956686 -0.57273984
-0.052262202 -0.21779124 0.45079178 0.5731891 0.26609194 -0.60433185 0.3485668 0.16533358
-0.4995787 0.2445229 0.07190243 -0.31510615 -0.07623774 -0.41329372 0.22730686 0.047317743
0.42988706 -0.025293104 0.22772785 0.096131444 0.14117724 0.21662945 0.41154414 -0.36266333
00000000: c876 393a 80f7 193e 0cae 73bd 4e9a adbc
00000010: 256e debb b852 27bd 3ad1 b93d 223b 32bd
00000020: 645a 69bd 6811 bc3d a00c 8dbd 91ee 7cbc
00000030: cc4f 16bd 7f53 eabc 3c75 a13d a12b 083e
00000040: e5ce 703d c620 09bd 6220 d2bc 6d6e 6bbd
00000050: d511 d33d 1a52 bc3d 8cf6 c73b cfd8 ea3d
00000060: f76b cb39 36af 073e 185a 7abc fd9b 283c
00000070: 4d9b 79bd f9b4 1f3d bd90 0bbd 0279 b33c
00000080: 73f2 cdbc f59a 41bd 982c 1439 2886 17bc
00000090: 27cb 35bd 99fe e8bc be87 6d3d 4852 c7bb
000000a0: 0fbb d93d 0a68 24ba a8ae 1dbd 4adb c03d
000000b0: 76c0 023e eb59 423d 1675 25bd be8f 89bb
000000c0: 3973 8b3c 6b5b b1bd db78 bebd 9adc 41be
000000d0: 21f0 fabc 2879 a53b 86bc 1a3d fe68 80bd
000000e0: efa9 933d 0f88 183c a042 0cbd 4375 8b3d
000000f0: 381f 133d 810e 6ebe d967 01be 6831 e338
00000100: 63b1 15be 62ed 93bd 83a4 36be 5301 84bd
00000110: ac88 363d 9048 06be 3b0e d73d 3057 473d
00000120: 0b97 a9bd b0c0 c3bd c30c 82bc 8dca 123e
00000130: 965e aa3d 1158 9f3d d0a6 863d f43b 83bc
00000140: 1f16 e6bd cfda 6d3c 047d 89bc 512d e4bd
00000150: 3e0f a7bd e28c 963c e702 7abd c354 a83d
00000160: f16f 1cbd e8a1 00be 5790 933d 7df4 cebc
00000170: f298 bebd 2357 ff3c af80 11bd 949c 17be
00000180: a19c 13bd 5efa 0abe f0dd 263d 8196 63bd
00000190: b2db c0bc b0d8 da3d ad1a f0bd 0b74 a7bd
000001a0: 608c 413d c0d0 47bd e024 6ebd 9d75 af3d
000001b0: 4cfa 353d 3394 1d3e 17e1 fbbd 3fe7 96bd
000001c0: 791a 31bd c233 fbbd 0124 803e dec2 813d
000001d0: 8d71 b63c f1de a33b df7c f8bd 1a69 b1bd
000001e0: 7665 3c3d 4d04 1a3d c61d 7a3c c155 d8bd
000001f0: 08b4 2e3b 6fc7 2fbb b918 87ba 50d6 dbbd
00000200: f795 b43d 6704 5d3c f82d 103e a731 b8bd
00000210: 1fe6 e2be cae0 b83e 7348 0f3d 47cc 9c3e
00000220: 5091 c33e e28f 803e d584 99bd 39d3 fabe
00000230: 6c35 263e aab4 ad3d 8c9c 203e 54e4 7c3c
00000240: ae9e 233e 8161 843e 2b5c 0c3f 8dd1 223e
00000250: 0fb2 903e 2be2 be3d e519 493e b896 e8bd
00000260: 5dc9 b1be 90ab cf3e f309 c4be 1704 31bf
00000270: d365 a73e e76e 6b3e 94b4 b93d c3f8 ac3e
00000280: 8461 b1be 36c4 8a3e 91fb 42bf 9e59 b13d
00000290: d5e8 5b3e 7ac8 793e a432 a93e 647c efbe
000002a0: 0e3b 213d bb45 a13e c5db 6d3d 3f4e 633e
000002b0: 30b7 21bf 6a5e 893e 56f0 e4bd e75f edbc
000002c0: 9145 aa3e 5e7a 103e 4522 a53e f5cc 143e
000002d0: c63c cdbd f9fb d43d d21c 713d c53a 3f3d
000002e0: c177 803e 882f 15be f158 243e c703 7b3e
000002f0: ac4c 823e 4bcc acbe eb51 263e 6391 143e
00000300: c61f e43d 7007 9d3d 50de 33be 84b5 09be
00000310: d2a3 8bbd 3689 5e3e c10e 793e 934b 353e
00000320: c0b0 8a3e 2e64 05be 3f88 bbbe 6b38 ddbe
00000330: 49e2 663e 8324 44bf 1f6c 493e ee48 6fbe
00000340: 6517 bf3d c5fd 30bf 71c6 0fbf d01e e03e
00000350: 5b3b c33e 871d 1b3e ddf6 b73e e58f 883e
00000360: 956c 393e 589e 23be 4d2c 843c b753 1f3e
00000370: 73a0 3b3e b4f6 75be a930 7c3e b2ba 96be
00000380: 7c5f fcbe b5e1 913e b0ee 3bbf 1b48 123e
00000390: 73fc 2abd 5782 623e e061 973e 149f 12bf
000003a0: e410 56bd ab04 5fbe 2ece e63e 85bc 123f
000003b0: 343d 883e 7eb5 1abf 5977 b23e 354d 293e
000003c0: c8c8 ffbe 3664 7a3e 9541 933d 9855 a1be
000003d0: 8822 9cbd 3c9b d3be 21c3 683e 40d0 413d
000003e0: 281a dc3e 7c33 cfbc 7d31 693e 90e0 c43d
000003f0: c490 103e 1cd4 5d3e eab5 d23e 02af b9be

bias f4 [128]
-0.009585143 0.13736662 0.08284242 0.06748077 0.13688776 0.06757886 0.0632124 0.17620808
-0.07785321 0.2187079 0.04334015 0.08827382 0.0029415248 -0.066461794 0.06544093 -0.1182234
0.22255531 0.18069059 -0.085864484 -0.11242418 0.0 0.028842762 0.06204344 -0.044312637
0.13749686 0.033929475 -0.017920278 -0.011091068 -0.11556328 -0.0060675484 0.20852698 0.104798354
0.07399621 -0.0023624795 -0.10337339 -0.11697921 0.16618559 0.15920655 0.1270819 -0.11800474
0.098142155 0.05961183 0.17885724 -0.001793346 -0.052022528 0.08379971 0.20397256 0.071763486
0.15207197 -0.24000168 0.08895639 0.20994353 -0.07683308 0.08087689 -0.056089755 0.0745264
0.09424876 -0.023404961 0.1014896 0.064406075 -0.014548956 0.31901985 0.0755849 -0.008871885
-0.014185025 0.07504574 0.06497159 -0.071548425 -0.102090865 0.08294604 -0.008776914 -0.006830766
0.0 0.13529636 0.10966395 0.113754585 0.2256773 0.06818463 -0.032472387 -0.03828657
0.16161692 -0.015098021 -0.00871918 0.012522995 0.06707715 0.09687914 0.1353684 0.09730144
0.16075955 0.08147328 0.19136058 0.061808012 0.13223067 -0.05163859 0.22993538 0.1190203
-0.06675126 0.17945398 0.14382125 0.09950305 0.086094 0.019437576 -0.015555695 0.08447072
0.20457515 -0.0024589335 0.095205925 -0.004023811 0.07626973 0.17809293 0.05039069 0.14066051
-0.012837613 0.09811971 0.09889524 -0.0036005676 -0.05563215 -0.006125817 0.23160133 0.085809045
-0.0118919965 0.078963414 0.1589433 0.16047083 0.14712201 0.08116318 0.077661425 0.19031358
00000000: 010b 1dbc d6a9 0c3e 49a9 a93d 5c33 8a3d
00000010: 4e2c 0c3e c966 8a3d 8175 813d e46f 343e
00000020: 8171 9fbd f7f4 5f3e 7185 313d e8c8 b43d
00000030: 99c6 403b 1f1d 88bd e505 863d 1c1f f2bd
00000040: 8ae5 633e f406 393e b8d9 afbd a63e e6bd
00000050: 0000 0000 a847 ec3c 4321 7e3d 2b81 35bd
00000060: facb 0c3e a2f9 0a3d 8ccd 92bc 50b7 35bc
00000070: 71ac ecbd 49d2 c6bb 1988 553e 85a0 d63d
00000080: 538b 973d d4d3 1abb 6eb5 d3bd cc92 efbd
00000090: 8e2c 2a3e 0b07 233e c221 023e 78ac f1bd
000000a0: c1fe c83d 892b 743d 5a26 373e b50e ebba
000000b0: 9315 55bd 2f9f ab3d 2fde 503e bcf8 923d
000000c0: c1b8 1b3e 00c3 75be c52e b63d 70fb 563e
000000d0: a95a 9dbd c8a2 a53d 5fbe 65bd 4ca1 983d
000000e0: 7e05 c13d c3bb bfbc c8d9 cf3d 55e7 833d
000000f0: bf5e 6ebc 9256 a33e 42cc 9a3d 625b 11bc
00000100: 4f68 68bc 95b1 993d d30f 853d fb87 92bd
00000110: 0415 d1bd 9ddf a93d 0ccd 0fbc 9ed4 dfbb
00000120: 0000 0000 218b 0a3e 7e97 e03d 2af8 e83d
00000130: f317 673e 62a4 8b3d c401 05bd 61d2 1cbd
00000140: e87e 253e b15d 77bc e4da 0ebc 3f2d 4d3c
00000150: bf5f 893d 9268 c63d 049e 0a3e fa45 c73d
00000160: 279e 243e 77db a63d 07f4 433e 662a 7d3d
00000170: 7a67 073e fc82 53bd 2e74 6b3e eac0 f33d
00000180: e2b4 88bd c9c2 373e e145 133e 41c8 cb3d
00000190: 0d52 b03d 8d3b 9f3c 50dd 7ebc fcfe ac3d
000001a0: 267c 513e 0f26 21bb 53fb c23d 2cda 83bb
000001b0: 4e33 9c3d fe5d 363e 7866 4e3d 4f09 103e
000001c0: da54 52bc fdf2 c83d 9689 ca3d 80f7 6bbb
000001d0: 8ade 63bd 14bb c8bb e628 6d3e a7bc af3d
000001e0: a6d6 42bc 92b7 a13d 08c2 223e 7752 243e
000001f0: 27a7 163e e238 a63d f40c 9f3d 90e1 423e

weight f4 [2, 128]
-0.13066134 0.6234773 0.4700223 0.41207072 -0.5874928 0.6326442 -0.10164539 0.69907206
0.08457395 0.39072293 -0.32591403 0.3501423 -0.28543666 -0.24879344 0.3767479 -0.9911844
0.8502766 0.31606957 -0.77537996 -0.9850817 -0.004418872 -0.46129894 0.3114728 -0.2548558
0.46930233 -0.552213 -0.4003692 -0.48350173 -0.49355203 0.08941572 0.36018932 0.3416708
0.5091011 -0.051051587 -0.7611838 -1.0923556 0.3453744 -0.14799893 0.012450346 -0.5912938
-0.5038752 0.46578115 0.35972577 -0.15086171 -0.43709227 0.54910415 0.33947054 0.32424903
0.30555105 -1.5611184 0.08356395 0.30253553 -0.48837703 -0.7381514 -0.051353056 0.41483596
0.17362367 -0.4758858 1.1063586 0.2163722 -0.36029196 0.6781167 0.51914626 -0.16006981
-0.5102132 0.36386073 0.4274645 0.006284909 -0.76003665 0.28886855 0.06472178 -0.025816191
0.12441486 0.39935216 0.15020806 0.27630398 0.41824543 0.21492383 -0.62245315 0.07991831
0.2752976 -0.49545458 -0.11759307 -0.5664825 0.38328472 0.428673 0.34776798 0.34317106
0.2657604 0.45020163 0.10376428 -0.81160825 0.43005416 0.06770993 0.16758615 0.5209041
-0.6654299 0.64879 0.34036216 0.5972815 -0.71837115 -0.74771386 -0.42611486 0.26812586
0.4146039 -0.09549167 0.31678733 -0.036901657 0.7943906 0.29874414 0.40683383 0.53919303
-0.1505904 0.4733375 0.04022959 -0.11302222 0.3833354 -0.75696105 0.38196394 0.33192867
0.12315737 0.3273276 0.13577142 0.28623226 0.5763561 0.50383586 0.4020009 0.24996749
0.051722646 0.05868687 0.34068263 0.36336333 0.39065287 0.549155 0.51293004 0.04154385
-0.84400517 0.52895486 -0.4218206 0.44767144 -0.75125164 -1.1491157 0.33741745 -0.70161986
0.27411905 0.32855758 -0.60759836 -0.30525565 -0.03280085 -0.67973876 0.35206255 -0.91185874
0.6067282 -0.2434741 -0.7951289 -0.6597423 -0.59822166 -0.10198216 0.5413184 0.4798135
0.5087838 -0.1727299 0.041694675 -0.43773705 0.43504903 0.56519955 0.41903597 -0.80912554
0.23437876 0.41773257 0.28906628 0.034513466 -0.6933725 0.42601514 0.3538455 0.45369107
0.41486433 -0.322751 0.40326712 0.59486485 -0.5650983 0.67635393 -0.50655764 0.40631476
0.6607311 -0.7689489 -0.8686359 0.53687537 -0.23170623 -0.63251615 0.31834194 -0.18311739
-0.6835751 0.5603448 0.3459564 -0.9455738 -0.7317221 0.6420014 -0.09815921 -0.011269879
-0.024452582 0.46799797 0.4073483 0.42854324 0.5165845 0.67881733 -0.7293026 -1.1428446
0.62112683 -0.7451155 -0.08506328 -0.4659078 0.328991 0.21257907 0.36007115 0.689668
0.2624966 0.3112772 0.59661335 -0.54587466 0.499182 -0.6541411 0.4272295 0.32940477
-0.6928157 -0.006119287 0.47809258 0.5194665 0.057994198 -0.1788217 -0.73961174 0.5040627
0.34758016 0.009018136 0.4410263 -0.016479716 0.28205356 0.39490736 0.28543735 0.3829368
0.1111319 0.17523311 0.37112266 -0.11385745 -0.6289535 -0.4090762 0.40249133 0.42981133
0.1767709 0.36753568 0.68564343 0.4785867 -0.122853704 0.38278884 0.457462 0.486089
00000000: 16cc 05be 359c 1f3f c3a6 f03e effa d23e
00000010: ee65 16bf f8f4 213f 752b d0bd 63f6 323f
00000020: 1b35 ad3d d60c c83e 34de a6be da45 b33e
00000030: c124 92be b5c3 7ebe 1ae5 c03e 43be 7dbf
00000040: baab 593f dfd3 a13e 4d7f 46bf 502e 7cbf
00000050: 2fcc 90bb 602f ecbe 5d79 9f3e 767c 82be
00000060: 6548 f03e d55d 0dbf 31fd ccbe 8a8d f7be
00000070: dab2 fcbe 971f b73d bc6a b83e 7aef ae3e
00000080: 7354 023f 781b 51bd f1dc 42bf 4fd2 8bbf
00000090: ead4 b03e 088d 17be 89fc 4b3c 085f 17bf
000000a0: f7fd 00bf de7a ee3e fa2d b83e 7e7b 1abe
000000b0: 8fca dfbe 1792 0c3f 15cf ad3e f803 a63e
000000c0: 3071 9c3e bad2 c7bf 9423 ab3d f0e5 9a3e
000000d0: 8e0c fabe 7df7 3cbf 9557 52bd 6165 d43e
000000e0: 67ca 313e 4ea7 f3be 299d 8d3f ad90 5d3e
000000f0: 3078 b8be 0e99 2d3f c5e6 043f 57e9 23be
00000100: 559d 02bf f44b ba3e a0dc da3e a3f1 cd3b
00000110: c391 42bf 94e6 933e da8c 843d 7a7c d3bc
00000120: 38cd fe3d e377 cc3e 24d0 193e b777 8d3e
00000130: 4424 d63e fe14 5c3e 1759 1fbf 36ac a33d
00000140: cff3 8c3e 39ac fdbe a3d4 f0bd ff04 11bf
00000150: e53d c43e 077b db3e a50e b23e 1eb4 af3e
00000160: bf11 883e d480 e63e 5e82 d43d 8fc5 4fbf
00000170: 0f30 dc3e 81ab 8a3d b49b 2b3e f959 053f
00000180: 9d59 2abf 1a17 263f f343 ae3e 71e7 183f
00000190: 2ce7 37bf 2d6a 3fbf ba2b dabe cb47 893e
000001a0: f646 d43e 2391 c3bd f331 a23e 3126 17bd
000001b0: 2f5d 4b3f fef4 983e 864c d03e 8e08 0a3f
000001c0: 5f34 1abe 4b59 f23e c8c7 243d 3278 e7bd
000001d0: 8a44 c43e 33c8 41bf c790 c33e 8ef2 a93e
000001e0: ee39 fc3d 7c97 a73e aa07 0b3e 098d 923e
000001f0: 138c 133f 63fb 003f 10d3 cd3e 7af7 7f3e
00000200: 20db 533d a561 703d f46d ae3e c20a ba3e
00000210: a703 c83e 6c95 0c3f 624f 033f e229 2a3d
00000220: b910 58bf 9669 073f dff8 d7be 3135 e53e
00000230: 0752 40bf 3916 93bf fbc1 ac3e 5c9d 33bf
00000240: 5559 8c3e b338 a83e 918b 1bbf 784a 9cbe
00000250: 2f5a 06bd 5c03 2ebf 8b41 b43e 936f 69bf
00000260: 8a52 1b3f 4651 79be 918d 4bbf dfe4 28bf
00000270: 0e25 19bf 06dc d0bd d893 0a3f 1daa f53e
00000280: a83f 023f 1be0 30be 09c8 2a3d 121f e0be
00000290: bfbe de3e ebb0 103f e28b d63e da22 4fbf
000002a0: fc00 703e 0be1 d53e 7f00 943e fe5d 0d3d
000002b0: dc80 31bf a81e da3e 3d2b b53e 324a e83e
000002c0: 1969 d43e 9e3f a5be 0779 ce3e 1049 183f
000002d0: 48aa 10bf 8825 2d3f c3ad 01bf 7d08 d03e
000002e0: ac25 293f d6d9 44bf ec5e 5ebf aa70 093f
000002f0: 6644 6dbe 94ec 21bf b7fd a23e 2083 3bbe
00000300: c7fe 2ebf c272 0f3f 3221 b13e 2011 72bf
00000310: 2452 3bbf 345a 243f b207 c9bd 4ca5 38bc
00000320: c850 c8bc 6e9d ef3e f58f d03e 056a db3e
00000330: e23e 043f f9c6 2d3f 93b3 3abf bb48 92bf
00000340: 2b02 1f3f e4bf 3ebf a835 aebd 788b eebe
00000350: 8271 a83e 54ae 593e 3f5b b83e 158e 303f
00000360: f465 863e ba5f 9f3e a7bb 183f 71be 0bbf
00000370: c894 ff3e cb75 27bf d3bd da3e bea7 a83e
00000380: 5f5c 31bf 4d84 c8bb 8dc8 f43e c2fb 043f
00000390: 538b 6d3d 091d 37be 3257 3dbf 410a 013f
000003a0: 07f6 b13e cec0 133c 33ce e13e 7800 87bc
000003b0: 5369 903e 4c31 ca3e d824 923e 4b10 c43e
000003c0: 1f99 e33d 4f70 333e ca03 be3e 182e e9bd
000003d0: 1903 21bf 7072 d1be 5813 ce3e 3b10 dc3e
000003e0: 6e03 353e a32d bc3e 5486 2f3f 5109 f53e
000003f0: b99a fbbd e6fc c33e 7638 ea3e a8e0 f83e

bias f4 [2]
0.047821313 0.04824306
00000000: 48e0 433d 849a 453d
